backend/app/working_model/bat_epoch2.ckpt (torch, 159159 bytes, 7 tensors)

features.0.weight f4 [16, 1, 15]
000000 69 17 22 3e da c1 91 bc df 55 b9 bd b7 af 1a 3e
       0.15829243 -0.017792631 -0.09049582 0.15106092
000010 f9 33 9b 3e 11 86 e5 3d 20 db 8b 3e 01 ea 6a 3e
       0.3031309 0.11207212 0.27315617 0.22940828
000020 cb 27 70 bc c1 47 e8 bc be 29 8b 3d 36 eb 84 3e
       -0.014657925 -0.028354527 0.06795071 0.25960702
000030 fa b6 49 3e d9 09 7b bd 55 1c 88 3e 0e a2 36 bd
       0.19698706 -0.06128869 0.26584116 -0.04458814
000040 7d bf 44 be d3 88 da bd b1 40 0f be d7 64 74 bd
       -0.19213672 -0.106706284 -0.13989522 -0.05966648
000050 01 c8 5d be ff bf a0 bd b4 14 6f be a1 2c 32 be
       -0.21658327 -0.0784912 -0.23347741 -0.17399837
000060 cd 59 67 be 6b 06 08 3e 8c bf 9e be c2 19 46 3e
       -0.2259285 0.13283698 -0.31005514 0.19345763
000070 66 46 00 be 2a 51 3d be a3 49 9d 3e d2 26 9b 3c
       -0.12526855 -0.18487993 0.30720243 0.01893941
000080 04 e2 b9 bd 71 ce 06 3d db 58 7e 3e 6e 59 50 3e
       -0.09076312 0.03291172 0.24838583 0.20346615
000090 4b 91 46 3e a7 ca 2b 3e 7c 3c 45 3e 0f 82 38 3e
       0.19391362 0.16776524 0.19261354 0.18018363
0000a0 78 76 22 3c 8f 92 1f 3e 43 82 81 3e ee da 8b 3e
       0.00991594 0.15583251 0.25294694 0.27315468
0000b0 e1 55 8b 3e f8 b0 a7 3e c8 68 d2 bc 08 44 ac bd
       0.27213958 0.32752204 -0.02568473 -0.084114134
0000c0 a1 15 3b bc 9c 45 9c 3e 76 c5 15 3e 46 b7 a2 3e
       -0.011418731 0.30521858 0.14626107 0.31780452
0000d0 e2 77 a5 3e ec 9a 02 be 2b 61 82 3e 29 5e 6c bd
       0.32318026 -0.1275441 0.25464758 -0.057706986
0000e0 03 94 8c 3e 70 48 a1 bc 25 e7 15 3e 60 19 4b 3e
       0.27456674 -0.019687861 0.14638956 0.19833899
0000f0 b2 33 0c be c5 39 9b be a0 63 d0 3c 95 59 6e be
       -0.13691595 -0.30317512 0.02543813 -0.2327636
000100 f0 6c e6 3d 61 71 6a be c5 fe 15 be 6b 91 6d bd
       0.11251247 -0.22894813 -0.14647968 -0.05800001
000110 99 1a 82 be eb 40 af bc 78 7f 56 be e1 60 97 be
       -0.25410917 -0.02139326 -0.20947063 -0.295661
000120 62 98 31 3e 71 d9 5b bb 32 b5 e9 3d 0d 98 1c 3e
       0.17343286 -0.0033546353 0.114115134 0.15292378
000130 53 bb 90 3e f3 cd 5f 3e 18 cd 4b bc 89 85 5c 3e
       0.28267917 0.21855907 -0.012439035 0.21535315
000140 85 fb 07 3e 36 4d aa bd c6 74 43 3e cc ed 70 be
       0.13279541 -0.08315508 0.19087514 -0.23528212
000150 c9 f2 85 be 4f 29 ac bd 6a 70 93 be 7c 0d 89 be
       -0.26161793 -0.084063165 -0.28796703 -0.267681
000160 5d 25 98 be 56 af f6 bd 73 64 b5 bb f3 f0 90 be
       -0.29716006 -0.120451614 -0.005535656 -0.2830883
000170 46 77 d6 bd 74 66 c5 3d 21 27 25 3d 35 22 1c be
       -0.10471968 0.09638682 0.04032052 -0.15247424
000180 d6 80 fd 3c ad b2 0f be 80 bc 0a 3c 41 09 85 be
       0.030945223 -0.14033003 0.008467793 -0.25983623
000190 d2 21 65 be 27 de a6 3d 04 d2 23 3e d8 7b 14 be
       -0.22376183 0.08147841 0.15998083 -0.14500368
0001a0 fb 74 02 be 58 54 55 be 04 74 df ba 77 60 c7 bd
       -0.12739937 -0.20832956 -0.0017048125 -0.09735196
0001b0 65 94 71 bd e0 5c 11 be 84 a6 6b bc c9 ca 18 3e
       -0.05897941 -0.14195585 -0.014382962 0.14921106
0001c0 4c ea 0d 3e b4 c2 74 3d 16 44 32 bd cd 33 9a be
       0.13858908 0.059755996 -0.043521963 -0.30117646
0001d0 f2 f9 64 be a2 f2 86 be 94 91 52 be e9 ba 77 be
       -0.22360972 -0.2635699 -0.20563346 -0.24192394
0001e0 50 6d c1 3d 38 e6 a2 3e 1f 96 18 3e b2 90 6c 3d
       0.09444678 0.31816268 0.14901017 0.05775518
0001f0 df c0 0d 3b 22 ca 18 3e 32 57 85 3e 1f 05 3a 3d
       0.0021629853 0.14920858 0.26043087 0.04541504
000200 8d 37 47 3e 78 49 24 be 5c a6 0d 3e a1 a4 96 3e
       0.19454785 -0.16043651 0.13832992 0.29422477
000210 09 e4 8b bd ab 3b 45 be 39 ff 42 be 31 66 99 3e
       -0.06830604 -0.19261043 -0.19042672 0.29960778
000220 31 38 c0 bd d0 17 e4 3d 6e 1a fa 3d ad 10 1d 3e
       -0.09385718 0.111373544 0.12212072 0.15338393
000230 58 a2 5b 3e 6c 52 dd bd 26 d7 1b 3b c7 8d 1d 3e
       0.21448648 -0.10806736 0.0023779362 0.15386115
000240 c6 e0 87 bd f6 16 56 3e 5f 6c 38 3e 74 69 95 3e
       -0.06634669 0.20907196 0.1801009 0.29182017
000250 da 32 ab bc 02 44 66 3e 6b b0 4a 3e bf f6 bb 3d
       -0.020898271 0.2248688 0.1979386 0.091779225
000260 88 c6 51 be 45 8a 05 be 69 f4 41 be 05 08 38 be
       -0.2048589 -0.13041027 -0.18940891 -0.17971809
000270 62 c4 2c be 38 cb 78 3d 3c f3 51 bd 19 d1 5a be
       -0.16871789 0.06074068 -0.051257357 -0.21368827
000280 c7 bf fe 3d d0 cf 08 be ae eb 3b be 2a d3 08 3e
       0.124389224 -0.13360524 -0.18351623 0.13361803
000290 0b a8 d0 3d 57 28 98 bc a5 84 8c be bf 70 05 3e
       0.10188302 -0.018573923 -0.2744495 0.1303129
0002a0 7a ee ae 3a 3e eb 2f be 86 29 55 be 01 ce 66 3d
       0.0013346218 -0.17179582 -0.20816621 0.056348804
0002b0 ed c5 5f 3e 01 a2 eb bd b6 cb 20 be 62 5f b7 3d
       0.21852846 -0.11505509 -0.1570271 0.0895374
0002c0 70 3f e1 bd ae bf 53 be 72 f2 8f bd 57 c6 57 be
       -0.10998428 -0.20678589 -0.07028665 -0.21071754
0002d0 64 5c 7f 3d 23 1f 5e 3d 77 d7 76 3d ce 4e a8 3a
       0.06234397 0.054228913 0.060264077 0.0012840868
0002e0 b5 c3 8b be 7c 6b 73 3e f8 42 18 be da 36 85 be
       -0.2729775 0.23771471 -0.14869297 -0.2601841
0002f0 bd 04 ef 3d 09 90 87 be c8 ce 0e 3d 33 65 18 3e
       0.11670826 -0.26477078 0.03486517 0.14882354
000300 bf 47 6b be 29 09 3f bd 44 50 d6 bd 28 4a ec bd
       -0.22976588 -0.046639595 -0.10464528 -0.11537582
000310 62 b0 2c 3c 0f 5b d8 3d 13 f3 3e 3e a3 27 ab 3e
       0.0105401 0.10564243 0.18647413 0.33428678
000320 56 c7 9c 3e 1d 1f c2 bd 13 10 8b 3e 3c af 0b 3e
       0.3062083 -0.09478591 0.271607 0.13641065
000330 ad 89 07 3e f4 50 28 3e 51 5e 71 3e 20 97 ee 3b
       0.13236113 0.16437131 0.23571135 0.007281199
000340 bf 95 0f 3e 98 ca 5a 3e c3 73 67 3e e2 30 fa bd
       0.14021967 0.21366346 0.22602753 -0.12216355
000350 5a 5c 09 bd ac 5c 2c be da 81 0c bd 31 11 4d bd
       -0.03353534 -0.16832227 -0.034303524 -0.050065223
000360 fa 4f 97 3d b0 1b 2a 3e c9 8f 55 be d7 3d 52 3d
       0.07388301 0.16612124 -0.20855631 0.051328506
000370 a4 9e a3 bd 65 1c 46 3e 40 36 29 3e 12 8a 57 3e
       -0.07989243 0.19346769 0.16524601 0.21048763
000380 51 78 64 3d 49 6d a0 3d f5 c4 b9 bc a2 48 8d 3e
       0.055778805 0.078333445 -0.022676924 0.27594477
000390 bf cc db 3d 86 a7 01 3e 82 4f a4 bd 70 a9 76 bb
       0.107324116 0.12661561 -0.080229774 -0.0037637614
0003a0 f9 bf c6 bd 57 2d 68 bc 8f ee 19 3e 84 c7 82 3e
       -0.09704585 -0.014170966 0.15032409 0.25542843
0003b0 0c a6 f5 3d 2e b3 b3 3d ca f3 2c be a2 cd 4e 3e
       0.119945616 0.0877441 -0.16889873 0.2019563

features.0.bias f4 [16]
000000 67 82 2e 3d 94 9f 85 3e 58 8b e6 3d e2 a6 a7 3d
       0.04260483 0.2609831 0.112570465 0.08186127
000010 fc c2 0f 3d 3d 57 21 be 17 c0 34 3e 75 dc c8 3c
       0.03509806 -0.15755935 0.17651401 0.024519185
000020 b3 f5 01 3e a3 c7 5e 3e 43 6d d3 bd bf df 00 3c
       0.12691383 0.21755843 -0.103235744 0.007865845
000030 31 75 4f be e5 27 29 3e d1 9c 39 be fe 02 91 bb
       -0.20259549 0.16519125 -0.18126227 -0.0044254055

features.3.weight f4 [32, 16, 15]
000000 26 97 b9 3b 51 80 dc bc ab c7 c4 bd 3c a0 86 bd
       0.0056637703 -0.026916655 -0.09608396 -0.06573531
000010 11 af 11 bd 9f a0 3a bc 5e 92 3b bd 22 93 c8 bd
       -0.035567347 -0.011390834 -0.045793884 -0.09793688
000020 95 65 0e bd 56 46 89 bc 08 10 5a bc b7 7c 90 bd
       -0.034764845 -0.016757172 -0.013309486 -0.070550375
000030 fe 50 de bd 95 fc cc bd e9 9a e2 bd 94 27 ce 3a
       -0.10855292 -0.10009114 -0.11064703 0.0015728348
000040 9e dc 1f 3d c9 b7 38 3d cb ed 92 3c 57 e8 6b 3d
       0.039028756 0.045097146 0.017935654 0.057594623
000050 d1 98 f9 3c 62 ac aa bc bc 7e 5b 3c b8 b7 9d 3d
       0.030468376 -0.020834152 0.013396915 0.07701057
000060 d9 34 9f 3c 28 3e 03 bd eb 3d 1c bd 21 5c 88 3d
       0.01943438 -0.0320417 -0.038144987 0.06658197
000070 6d 61 94 3d 99 76 b4 3c d5 57 ac bd 1b 56 61 bd
       0.07245145 0.022029208 -0.0841519 -0.055013757
000080 de ae eb bb 28 a7 1d bc 96 12 9f 3b f4 77 85 bd
       -0.0071924767 -0.009622373 0.0048545105 -0.0651702
000090 83 bf e0 3c 3c c1 90 bd 09 fe c4 bc 53 78 77 bd
       0.02743507 -0.070681065 -0.024046915 -0.060417484
0000a0 ac 3d a1 bd 5b ec eb bc 48 b1 0d bd 13 65 6f 3c
       -0.07873091 -0.028799227 -0.034592897 0.0146115
0000b0 a4 8b 11 bd 3f 96 44 bd 9c 31 39 bd 87 b1 93 bd
       -0.035533562 -0.04799485 -0.045213327 -0.07211595
0000c0 1d 4d 83 bc c9 78 81 bd 96 63 fb bc a8 a5 e1 bc
       -0.016027981 -0.06321866 -0.030687135 -0.027544811
0000d0 16 7e 9b bd 7a e4 54 bc 0b 30 9e bc 55 a5 fa bb
       -0.07592408 -0.012993926 -0.019310018 -0.0076491036
0000e0 f2 cf 03 bd 53 a3 1d bd 52 36 a0 bd f2 b3 4c bd
       -0.032180734 -0.038485836 -0.07822861 -0.049976297
0000f0 1a ff 7b 3c 72 fe a6 bc 4b 8a 5e 3d 58 03 a4 3c
       0.015380645 -0.020385 0.054331105 0.020021126
000100 0b 94 38 3d 80 94 42 3d b8 f5 58 3d 0d d1 d1 bc
       0.04506306 0.047504902 0.05296871 -0.025612378
000110 74 25 05 ba 99 c3 37 3c b6 5f dc 3c a8 0a 80 3d
       -0.00050791283 0.011216068 0.026901107 0.062520325
000120 82 12 80 3b 5e 72 07 3c 29 6e ba 3d b3 f4 dd bc
       0.0039084563 0.008267013 0.09103043 -0.02709422
000130 c5 b7 1d bd 58 0d 82 bc d7 95 5d 3d 9b 4c 2a bc
       -0.038505334 -0.015875503 0.054097977 -0.010394241
000140 c2 41 66 3d b7 78 5b bc bf 05 f0 bc 30 2a e7 38
       0.056215055 -0.01339548 -0.029299615 0.000110227964
000150 a5 ee 12 3d 9c f0 9d 3c 34 23 c3 3c 78 90 5b 3d
       0.03587212 0.01927977 0.023820497 0.053604573
000160 86 77 16 3c d1 33 85 3d 19 fb 57 bb 5d 65 46 3d
       0.00918377 0.06504024 -0.0032956062 0.04843651
000170 31 2b 09 3d b1 31 4d 3d 78 46 4b 3c be e2 8f 3c
       0.033488456 0.050096218 0.012406938 0.017564174
000180 99 e0 ba ba 16 56 9d 3d d5 c3 e9 3a 1d 79 48 bd
       -0.0014257609 0.07682435 0.0017834852 -0.048943628
000190 ec d4 76 ba 2a 65 26 bc a5 47 d7 bc 74 4e 04 3d
       -0.0009415883 -0.010155955 -0.02627928 0.03230138
0001a0 a4 4c 81 3d 7a 0e 7e 3d 38 ee a8 3c a2 07 5d 3d
       0.06313446 0.062025525 0.020621404 0.053962357
0001b0 5e bf d1 3d 9f 2d 8e 3d 4d a5 be 3c e5 a7 a6 3d
       0.102415785 0.06942295 0.02327218 0.08137492
0001c0 cc e8 8b 3d 1b f5 b7 3d 9f 8a b8 3d c6 f1 a4 bc
       0.06831512 0.08982297 0.09010815 -0.020134818
0001d0 f0 f3 86 b9 b1 55 b1 3d 08 ea f8 3c 25 22 b6 3d
       -0.0002574022 0.086589225 0.030385032 0.08893231
0001e0 7d 3d 1d 3c 96 b2 00 3d a4 e8 5d ba a4 34 ef 3b
       0.0095971795 0.031420313 -0.0008465147 0.0072999764
0001f0 08 31 bd bc a2 6d 70 bd b5 9a d8 3c 4b e1 73 bc
       -0.023094669 -0.058698304 0.026440958 -0.014885257
000200 ef 6e 97 3b a9 6f 9f 3c 65 5d 2c 3d 07 0c 61 bd
       0.0046213786 0.019462423 0.042081255 -0.05494311
000210 73 0f 21 bd 45 b8 dd 3c c4 b0 39 bd 23 8c 50 bd
       -0.039321374 0.027065406 -0.045334592 -0.050914895
000220 18 68 99 bd ee 44 9d 3c 0c d1 76 bc c1 8d 11 3d
       -0.074905574 0.019197907 -0.015064489 0.035535578
000230 55 4c ca bb 71 4f d8 bc 04 95 5b 3d 50 0b 8b bc
       -0.0061736503 -0.026405068 0.05360891 -0.016973168
000240 4f c4 13 bd f6 19 9e bd e9 16 57 ba 9c de 82 3c
       -0.036075886 -0.077197954 -0.0008205013 0.015975289
000250 42 2a 99 bd 9e ae 80 39 bc 29 82 3d 86 f7 c6 3c
       -0.07478763 0.00024544162 0.063556165 0.02428795
000260 58 d0 89 3d 5f 54 b1 bb 16 61 c3 3d c4 04 09 3b
       0.067291915 -0.005411669 0.09540002 0.0020907382
000270 32 a5 ad 3d c2 8a 14 b9 77 b8 2e 3d fb ab 32 bd
       0.08478774 -0.00014166071 0.042656388 -0.043621045
000280 de 5e a9 3d 97 99 8a 3c 65 a9 c4 3c 42 ba af 3d
       0.082700476 0.01691894 0.024006555 0.08580448
000290 8c be 15 3d e0 73 4d 3d fa 44 7f bc 0d a6 c2 3d
       0.036558673 0.050159335 -0.01558041 0.09504328
0002a0 32 94 a8 3b a5 88 29 3d a5 b3 88 3c 81 c4 51 bc
       0.0051446194 0.04139008 0.016687224 -0.012803198
0002b0 c8 05 0e 3d bd d5 88 3c d3 5e 9a 3d 3a 37 9f 3d
       0.034673482 0.01670348 0.075376175 0.077742055
0002c0 45 47 02 3d 73 37 94 3d 74 e9 65 bc 2f 35 21 bc
       0.03180625 0.072371386 -0.01403271 -0.00983934
0002d0 a3 a0 38 3c 21 40 9e bc a7 d2 cc 3d 4d 93 83 3d
       0.0112687675 -0.019317688 0.10001116 0.0642458
0002e0 b1 0d cb 3d 8e 1e 75 3d a6 3c 5f 3d ce eb a9 3d
       0.09914721 0.059843592 0.0545012 0.08296929
0002f0 33 55 23 3d 98 0c 18 3c 2b b8 9f 3c 2a d5 38 3d
       0.039876174 0.009280346 0.019496998 0.045125164
000300 fe 86 ca 3d c1 c1 03 3d 82 89 5f 3d 61 2d f7 3c
       0.09889029 0.0321672 0.054574497 0.030173006
000310 61 db a1 bd 8d 66 8a bd da 65 cf 3b d6 d9 86 bd
       -0.07903171 -0.06757841 0.0063292803 -0.06584518
000320 41 c8 cc 3b ba e1 16 bd 1a 59 f8 3c 1e 36 29 bd
       0.006249458 -0.036836363 0.030315924 -0.041311376
000330 50 a7 a5 3a 4b a9 9a 3c 22 85 67 3c 65 23 75 bd
       0.0012638364 0.018879553 0.014130862 -0.059848208
000340 b1 0f 9d bd ae 34 2b bc 55 b2 4b 3d 41 0e 72 3d
       -0.076690085 -0.010449572 0.049730618 0.059095625
000350 46 50 cc 3c 09 be bd bb a9 1f 0a bd 5f 08 06 3d
       0.024940621 -0.005790476 -0.0337216 0.032722827
000360 4e 61 81 3d 9c 55 ec bc 4c 17 82 3d 94 56 2f 3c
       0.063173875 -0.028849415 0.063521 0.010701794
000370 6f 60 0d bd 0d 01 67 3d 11 d4 11 3d 94 b5 9a 3d
       -0.034515794 0.056397486 0.035602633 0.075541645
000380 10 2f 54 bd fa 4c 05 3d 80 6f 6b 3d e3 d9 2c 3c
       -0.051802695 0.032544114 0.05747938 0.010549995
000390 07 70 97 bc cb e0 78 3c 2f 7b 1f bc a3 20 65 3d
       -0.018486036 0.015190314 -0.009733959 0.055939328
0003a0 0c e7 18 3c e0 33 5b bd a6 9e c3 bc 63 80 76 3c
       0.00933243 -0.05351627 -0.02387936 0.015045258
0003b0 36 ef 10 bd a5 c2 a6 ba ac 0a 14 bd 36 b6 72 3d
       -0.03538438 -0.0012722804 -0.03614299 0.0592558
0003c0 5e 94 b1 3b f3 d0 65 bd 17 61 12 bd bf 84 61 3d
       0.005419298 -0.056107473 -0.035737123 0.055058237
0003d0 1b 6a 6d 3d bf 41 14 bd 73 4e c0 bc 95 b5 86 3c
       0.05796252 -0.036195513 -0.023474908 0.016444007
0003e0 71 46 07 bd a7 60 56 bc 5e 87 81 bd 17 e2 86 3c
       -0.033026163 -0.013084567 -0.06324647 0.01646523
0003f0 59 5c 68 bd 6b 94 d8 3c a6 11 3b 3c 25 f1 05 ba
       -0.056728695 0.026437959 0.011417782 -0.00051094807

features.3.bias f4 [32]
000000 a9 07 70 3d 45 62 32 bd d5 cd 5e bd bc 3a 21 bc
       0.058601055 -0.04355075 -0.054395515 -0.0098406635
000010 87 51 d3 3d 71 10 43 bd 30 26 83 3c 8c d3 4d bc
       0.103182845 -0.0476231 0.01600942 -0.012562644
000020 e4 f9 14 3d fc 79 84 3d ae 68 d9 3c 17 d8 f9 3c
       0.036371127 0.06468579 0.026539173 0.030498547
000030 4c 33 66 bd e8 ff b1 3c d2 a4 8a bd 0d 5b 2c 3d
       -0.056201264 0.02172847 -0.06769718 0.04207902
000040 86 1d 1a 3d 95 91 1a bd 91 7a 80 bd 60 c9 35 bd
       0.037625812 -0.037736494 -0.06273378 -0.0443815
000050 44 1d 04 3c f2 b2 22 bc aa e5 42 3d 2c d5 24 bd
       0.008063618 -0.009930359 0.047582306 -0.04024236
000060 4f 3e bc 3d 08 8a 03 3c 06 35 d5 3c d0 e3 c4 bc
       0.09191572 0.008028515 0.02602626 -0.02403441
000070 a1 3d 0a bb db b0 14 bc 9f e6 c2 3d e4 3a b1 bc
       -0.0021093863 -0.009075369 0.09516644 -0.021634527

features.6.weight f4 [64, 32, 15]
000000 d3 4d a9 3c f6 7a 93 3d 52 dc 3e 3d af 61 aa 3d
       0.020666992 0.07201187 0.046596833 0.08319413
000010 78 06 29 b8 de 33 fd 3b b8 ff cc 3c 4e b4 79 3d
       -4.0298764e-05 0.0077271303 0.02502428 0.060962968
000020 f6 74 01 3d a3 8c 77 3d 1c d5 09 3d 51 a3 fd 3c
       0.031605683 0.060436856 0.033650503 0.030961664
000030 e0 0b 8b 3c eb b6 a3 3d 89 08 22 3d 3b 3b f8 3c
       0.016973436 0.07993873 0.03955892 0.03030168
000040 85 0c 13 3c ea 5c f9 bc 62 20 95 3c bd 9b 3c 3d
       0.008975153 -0.030439813 0.018203918 0.04604696
000050 9e 93 e5 39 1b 49 0d 3d bd 37 4b 3d d9 b7 c7 3c
       0.00043788267 0.034493547 0.049613703 0.024379658
000060 f9 93 ac bc 50 97 9c 3b e0 9c 09 bd ad b7 3e 3d
       -0.021066653 0.00477878 -0.033596873 0.046561886
000070 05 ba 56 3c b3 de 3d 3d 8f 4a 33 3b c3 e9 60 bc
       0.013105874 0.04635496 0.0027357673 -0.013727608
000080 3b a4 b8 3c d7 a9 17 3c 5b 2b bb bc e3 29 cd 3c
       0.022539249 0.009256802 -0.022847822 0.025044387
000090 e1 99 9b bc 91 6f 69 bc 1c 6e d5 3c a6 0a b8 bc
       -0.018994274 -0.014247791 0.02605348 -0.022466015
0000a0 28 15 ac bb 77 5e 0f bd 5e 78 33 3d f2 17 62 bc
       -0.0052515455 -0.035002198 0.043815963 -0.013799654
0000b0 08 9e a5 bc e8 02 b5 3d fe 5b 1d 3d 1c 03 d1 3d
       -0.020216957 0.08838445 0.03841781 0.10205671
0000c0 e1 06 59 3d 37 f3 e4 3c d2 a2 cd 3d 37 0d cf 3d
       0.052985076 0.027948005 0.10040821 0.101099424
0000d0 b4 8d 7c 3c 98 46 b5 3d 51 3b 81 3d 10 51 d2 3d
       0.015414644 0.08851355 0.06310142 0.10269368
0000e0 a5 13 c7 3d 0d 7c d4 3d 7e f5 6e 3d a2 0d 7d 3d
       0.09720544 0.10375223 0.05833959 0.06178058
0000f0 ce 54 99 bc cb dc 04 bd 17 1d 0f 3c b1 38 2b bc
       -0.018717196 -0.032437127 0.008734963 -0.010450528
000100 f7 df 59 bd e3 d7 e5 bc 38 16 97 bc 58 70 28 3c
       -0.053192105 -0.028057044 -0.018443212 0.010280691
000110 10 72 8d bd 07 c5 9d bc 73 5c 8c bd 63 67 84 bc
       -0.06906521 -0.019258989 -0.06853571 -0.01616258
000120 48 00 6e 3c 5c b3 40 bd 60 b0 11 bd 64 b5 09 3c
       0.014526434 -0.04704605 -0.035568595 0.008405063
000130 e5 ba c7 3c 08 96 27 3d 35 dc 22 3d d2 c3 33 3d
       0.02438111 0.040914565 0.039760787 0.04388792
000140 33 79 1f 3d 05 b6 ac 3d 41 04 78 3b 3c 28 ec 3c
       0.038933944 0.08433155 0.0037844332 0.028827779
000150 c4 10 91 3c 72 e7 9a 3d d3 e4 4c 3d f5 c5 f6 3c
       0.01770819 0.07563676 0.05002291 0.03012369
000160 2b 47 f4 3c 8a 6a 8e 3d 1e 2d 07 3d f2 14 91 3d
       0.029819092 0.069539145 0.03300201 0.07084073
000170 ec 3c 25 3d 78 f9 d1 3c bb 12 7f 3c 64 50 9f 3d
       0.040341303 0.025631651 0.015568431 0.07779005
000180 62 66 84 3d 03 2e 3c 3d 78 bc 71 3d 21 57 9c 3d
       0.064648405 0.045942318 0.05901763 0.07633806
000190 3d 72 c2 3c d7 df a0 3d 21 0c 88 3d 2d 55 9d 3d
       0.023736114 0.07855194 0.066429384 0.076822616
0001a0 d8 07 62 3d 89 e4 51 3d bb aa 1f 3d b1 5c 06 3d
       0.05518326 0.05124334 0.03898118 0.03280324
0001b0 f2 0a 20 3d eb ef 54 3d 55 8e e5 3c 1c 92 43 3d
       0.03907294 0.051986616 0.02802197 0.047746763
0001c0 05 ab 12 3d 75 a9 34 3d 20 6d 88 3d 03 67 66 3c
       0.03580763 0.04410692 0.06661439 0.014062646
0001d0 bb 08 2b 3d 8b d0 06 3d 19 c0 8e 3d 7e 34 88 3d
       0.041756373 0.032913726 0.069702335 0.06650637
0001e0 f2 49 6d 3d 99 bd 5f 3d 0f 1e 39 3d 81 b3 a9 3d
       0.057931848 0.054624174 0.04519468 0.08286191
0001f0 b6 13 33 3c 0a d7 b0 3b fb f9 0c 3d a2 25 0b 3d
       0.010929992 0.0053967284 0.034418087 0.033971436
000200 7c aa d0 3c ad bf 86 3d 5d da 57 3d 59 5c 6d 3c
       0.025471918 0.06579528 0.05269848 0.014487349
000210 64 c0 8b 3d f5 4e 94 3d 9d 5a b3 3d c2 4c b5 3d
       0.06823805 0.07241622 0.087575175 0.08852531
000220 41 f0 be 3d ff bd 93 3d e2 9a 1a 3d 01 94 4f 3d
       0.093231685 0.07213973 0.037745364 0.050678257
000230 5e dc ba 3c 8e b5 73 3d a5 27 7b 3d 41 60 41 3d
       0.022810157 0.059499316 0.061317105 0.047210936
000240 c5 14 13 3c 2e 1b 71 3d a7 b0 b2 3d 89 8a 23 3d
       0.00897712 0.05886381 0.087251 0.03992704
000250 da 8c a5 3d 0b d1 8f 3d 28 11 84 3d c6 71 62 3d
       0.08083506 0.07022294 0.06448585 0.055284284
000260 59 b1 89 3b 49 9a b0 3d 3d b7 85 3d bf de f0 3c
       0.0042020497 0.086231776 0.065290906 0.029403089
000270 1f a0 21 3d 11 77 8f 3c e5 95 9c 3c 23 e0 9b 3c
       0.039459344 0.01751283 0.019114444 0.019027775
000280 81 e9 2e 3c f3 c7 21 3d c1 be 7d 3d 35 7b b0 3d
       0.010675789 0.039497327 0.061949495 0.0861725
000290 72 a6 18 3d 48 ef 4f 3d 2a 1b 2f 3d 72 1b c2 3c
       0.03726811 0.050765306 0.042750515 0.023694728
0002a0 42 6c a5 3d 84 0f a4 3d 96 8d 82 3c fd 47 06 3d
       0.08077289 0.08010772 0.015936654 0.032783497
0002b0 d7 1b 4e 3d a5 3c 10 3d 6b 1b 92 3c ac da a4 3c
       0.05031952 0.035214085 0.01783534 0.020123802
0002c0 6a 12 ba 3d 99 7e ae 3d b4 54 95 3d fc 78 b9 3d
       0.090855435 0.0852024 0.072915465 0.09056279
0002d0 8e 05 a1 3c 2d 1a ff bc ec 88 fe 3c 4e 76 24 3d
       0.019655969 -0.031140411 0.031071149 0.040151887
0002e0 b7 b5 aa bc dd f2 97 bb 42 0d 0b 3c 7a 85 62 bc
       -0.020838602 -0.004637106 0.008487048 -0.013825769
0002f0 c8 c4 98 bb 2f 2b 1e 3d 21 61 b1 3b c0 63 bf bc
       -0.00466213 0.0386154 0.00541319 -0.023362994
000300 c5 c9 90 3c d9 ac ff 3b fa 53 4b 3d e2 6f 86 3d
       0.017674336 0.0078025875 0.049640633 0.06564309
000310 d5 c4 1d 3d 54 27 89 3c ec 8c 19 3d 7e 39 2b bb
       0.03851779 0.016742386 0.03748791 -0.0026126797
000320 53 5d 9c bc 04 97 7b 3d d7 04 43 bc 11 05 4d 3d
       -0.01908747 0.061423317 -0.011903009 0.05005366
000330 fa e4 75 3c a7 7d 7d 3d a2 5a 92 bc 7e 7c 17 bc
       0.015008206 0.06188741 -0.017865483 -0.00924599
000340 a3 7d 85 3d 56 53 b1 3c ee 90 0f 3d 14 06 ec bc
       0.06518104 0.021646183 0.035050325 -0.028811492
000350 33 a2 3a 3c 32 17 1b 3d 67 76 12 bd 94 81 12 3c
       0.01139121 0.037863918 -0.03575745 0.008942027
000360 fb bb cd bc 86 71 bd 3c 30 30 e0 bc 18 e0 cf bc
       -0.02511405 0.023125421 -0.027366728 -0.02537541
000370 30 47 41 ba 55 f5 d5 bc 13 fe ee bc b8 21 1a bd
       -0.00073729735 -0.02611796 -0.029173886 -0.037629813
000380 5f ff 12 bc a6 bb 67 3c f6 56 84 3c 5e ff f2 b9
       -0.008972018 0.01414386 0.016154747 -0.000463481
000390 f1 ec ce 3c 63 db 68 3d 18 48 6c 3c 5f 14 02 bb
       0.025259467 0.05684985 0.014421485 -0.0019848568
0003a0 10 ad 3b 3d 24 fa 8f 3c 0b 5c af 3d bf a6 ed 3b
       0.045819342 0.017575331 0.08562478 0.0072525437
0003b0 08 14 57 3c a1 5b 64 3c 37 e5 a5 3a 25 0b 8a 3d
       0.013127334 0.013937862 0.0012656812 0.06740407
0003c0 25 f4 1d 3d 22 9d 8b bb d3 ff 34 3d 9d 7e 3b 3d
       0.038562912 -0.004260675 0.044189285 0.045775045
0003d0 45 2d 17 3d a6 45 2d bc 82 9c 6b bc 12 9a 44 bb
       0.036908407 -0.0105756875 -0.014380576 -0.002999906
0003e0 a8 20 8c 3b d9 ea e2 3b fe 8f e8 3a b8 47 8c bc
       0.004276354 0.0069249687 0.0017743108 -0.017124042
0003f0 9b 1c 00 3c 5d de 71 3d b0 aa 82 3d 01 6d a8 3d
       0.00781932 0.059049953 0.06380212 0.08223916

features.6.bias f4 [64]
000000 8a a3 d2 bb 06 d8 db bc de e6 ff 3b 9d c2 85 3b
       -0.006428187 -0.026836406 0.007809504 0.0040820376
000010 7e 41 07 bc eb da aa 3d 0e 62 89 3d 01 f7 b8 bb
       -0.008255361 0.083425365 0.067081556 -0.0056446795
000020 a0 89 4c 3c dd 66 00 bc a6 4c fa bc 29 c1 c6 38
       0.012483984 -0.0078370245 -0.030554127 9.4773546e-05
000030 50 53 bf 3b ef be 40 bd f6 87 2c 3c 1e b4 15 bd
       0.005838789 -0.04705709 0.0105304625 -0.036548726
000040 d5 b3 39 3d 7f c2 84 3c dd 77 44 bb 6f 5a 29 bd
       0.045337517 0.016206024 -0.002997867 -0.04134601
000050 c5 e7 8a 3d e7 a8 a9 3d 66 f4 52 bc 4c f7 46 3d
       0.06782488 0.08284169 -0.012875652 0.048575684
000060 57 90 55 3c 46 95 f3 bb 5d b6 d2 3c f9 58 5b 3d
       0.013034902 -0.0074335663 0.025721723 0.053551648
000070 6d f6 85 bc 6f b9 55 bc 19 e4 ed bb fc 02 91 bc
       -0.016352857 -0.013044699 -0.0072598574 -0.017701618
000080 d1 b1 34 bd b3 80 54 bc 55 e3 96 3d 72 b1 10 bd
       -0.04411489 -0.012970137 0.07367579 -0.035325475
000090 da 77 26 3c 31 d0 06 bd 04 ba 07 bd d0 89 86 bb
       0.010160411 -0.03291339 -0.033136383 -0.004105784
0000a0 16 b5 71 3d d7 4f 89 3b 3e ac 86 bc 57 f2 26 bd
       0.059010588 0.004190426 -0.016439553 -0.040758457
0000b0 e3 9d 9f bb 69 ee 94 3a 39 03 23 3c b1 18 8c 3d
       -0.0048711165 0.0011362556 0.009949499 0.06840647
0000c0 60 85 4e bd de 8a 09 bd 32 22 35 3c f2 86 09 bd
       -0.050420165 -0.0335797 0.011055516 -0.03357596
0000d0 34 c1 47 3c 53 79 bb 3b b7 30 b9 bc 27 c4 09 bd
       0.012192059 0.00572125 -0.022606237 -0.03363433
0000e0 2c 7b 25 3b 95 e5 04 3c b4 a5 f6 bb 3f e1 93 3d
       0.0025250418 0.008111377 -0.0075270776 0.07220697
0000f0 1f 3d 09 3d db 19 98 bb fe 5b 22 3d b6 db 77 3d
       0.033505555 -0.004641754 0.03963851 0.060512267

classifier.1.weight f4 [1, 64]
000000 9b 31 f2 3d 39 eb 57 3c 59 bf 12 bd 31 53 16 3e
       0.11825868 0.01317864 -0.035827015 0.14680173
000010 a7 78 b0 3d b7 cd 25 be 13 c4 54 be 3e 9a 8d 3d
       0.086167626 -0.16191755 -0.20777921 0.06914185
000020 21 30 8a bb 9c 55 a4 3d d2 21 5f bd 03 0a 1f 3d
       -0.004217163 0.08024141 -0.054475613 0.038827907
000030 5e 70 3d be ce ed d7 3c da 10 cf 3d 19 24 a7 bd
       -0.18499896 0.026358511 0.10110636 -0.08161182
000040 96 b0 2d be 0b aa ec bd d9 f0 bd bd a2 25 99 bd
       -0.16961893 -0.115558706 -0.09274454 -0.07477881
000050 e5 58 44 be d1 c7 14 be d6 b7 a2 3d d1 fd 06 be
       -0.19174536 -0.14529349 0.0794522 -0.13182761
000060 6e 95 0a 3e 46 e1 29 3e 00 3f 2d be 50 c8 3a be
       0.13533565 0.16589841 -0.16918564 -0.18240476
000070 57 a9 65 3d b3 b9 06 3e cd 0d cd 3c f8 a3 19 3e
       0.0560697 0.13156776 0.025030995 0.15003955
000080 eb 88 3c bd 4c e7 d0 3d fa 98 14 be 67 48 60 bd
       -0.046029013 0.102003664 -0.14511481 -0.05475655
000090 d6 75 4d be 84 08 9e 3d c0 7a 93 3d 2f 3e cf bd
       -0.20064482 0.07716468 0.07201147 -0.101192825
0000a0 85 06 f3 bd cc c0 a9 bd 7a a9 0a 3e 19 46 d9 3d
       -0.11866478 -0.08288726 0.13541213 0.10609073
0000b0 ec f4 6e bd 53 70 25 3d 98 56 da bd 8a b6 31 be
       -0.058339044 0.040390324 -0.10661048 -0.1735479
0000c0 5e 30 a3 3d ad c7 c3 3d 8f 32 e8 3d 8b a2 2a 3e
       0.0796821 0.095595695 0.11337768 0.16663568
0000d0 56 db b2 3d 13 61 21 bd 1b 94 84 3d 2a aa 2e bd
       0.08733241 -0.039399218 0.064735614 -0.04264275
0000e0 6b 94 2f be 43 32 55 be b7 0b 97 3d 7a 95 18 be
       -0.1714646 -0.20819955 0.07375281 -0.14900771
0000f0 3b 58 52 be d5 00 15 3e 8c df 3a be 95 32 ef bd
       -0.2054147 0.14551099 -0.18249339 -0.1167957
