backend/app/working_model/bat_epoch1.ckpt (torch, 159159 bytes, 7 tensors)

features.0.weight f4 [16, 1, 15]
0	0x3e17b387	0.14814578
1	0xbd015067	-0.03157082
2	0xbdec7ef9	-0.115476556
3	0x3e0c4b8e	0.13700697
4	0x3e939910	0.28827715
5	0x3daaaef1	0.08334149
6	0x3e850cc9	0.25986317
7	0x3e5dc425	0.21656854
8	0xbd0f56c3	-0.03499485
9	0xbd208913	-0.039193224
10	0x3d3e69d3	0.04648764
11	0x3e7e5d98	0.2484039
12	0x3e36fe31	0.17870404
13	0xbdba0146	-0.09082274
14	0x3e82a40f	0.25515792
15	0xbd08c5e0	-0.033391833
16	0xbe39a21e	-0.18128249
17	0xbdc4ed66	-0.09615593
18	0xbe05d092	-0.13067845
19	0xbd4eeba4	-0.050517693
20	0xbe535bb4	-0.2064045
21	0xbd91a707	-0.07111936
22	0xbe67744c	-0.22602957
23	0xbe26b539	-0.16280068
24	0xbe5efff8	-0.21777332
25	0x3e10427a	0.14087859
26	0xbe967976	-0.29389542
27	0x3e4e8bb2	0.20170477
28	0xbdeb8019	-0.11499042
29	0xbe2ee680	-0.17080116
30	0x3e98f6a1	0.29875663
31	0x3aa92cf2	0.0012907072
32	0xbde0602a	-0.10955842
33	0x3cb86a92	0.022511754
34	0x3e6ab9f1	0.22922494
35	0x3e38a126	0.18030223
36	0x3e38b0c9	0.18036188
37	0x3e181f2b	0.1485564
38	0x3e32e597	0.17470394
39	0x3e2aaa4e	0.16666529
40	0xbc576b3d	-0.013148126
41	0x3e106616	0.14101443
42	0x3e6da51a	0.23207512
43	0x3e7c2743	0.24624352
44	0x3e82c0f1	0.25537828
45	0x3ea2ed21	0.3182154
46	0xbd247120	-0.040146947
47	0xbdd1b515	-0.10239617
48	0xbcb9643f	-0.022630809
49	0x3e956b2a	0.29183322
50	0x3df0706b	0.11740192
51	0x3e9bd3e2	0.3043509
52	0x3e9e55f0	0.3092494
53	0xbe1c03c0	-0.15235806
54	0x3e79c60b	0.24391954
55	0xbd9edbee	-0.07756792
56	0x3e853cdd	0.26022997
57	0xbd194816	-0.037422262
58	0x3e00d440	0.12580967
59	0x3e3b5435	0.18293841
60	0xbdfd0c63	-0.12355878
61	0xbe952ac1	-0.2913418
62	0x3d132cd1	0.035931412
63	0xbe5fbff2	-0.21850565
64	0x3dfceadd	0.12349484
65	0xbe5cd741	-0.21566488
66	0xbe0b8a72	-0.13627031
67	0xbd498fa4	-0.049209252
68	0xbe75cb62	-0.24003366
69	0xbc744ca1	-0.014910848
70	0xbe4c4c86	-0.19951066
71	0xbe8fb561	-0.2806807
72	0x3e3b99e3	0.18320422
73	0x3c69f236	0.014278939
74	0x3e084932	0.13309172
75	0x3e11e9ed	0.14249392
76	0x3e8a4c49	0.27011326
77	0x3e5b3d2e	0.21410057
78	0xbba069bb	-0.0048954166
79	0x3e59ede2	0.21282151
80	0x3e11a589	0.14223303
81	0xbd8d1629	-0.06888992
82	0x3e3f2a49	0.18668474
83	0xbe6cb5ee	-0.23116276
84	0xbe847042	-0.25866896
85	0xbdb3d659	-0.08781118
86	0xbe923a57	-0.28560135
87	0xbe87c500	-0.26517487
88	0xbe9695b0	-0.29411077
89	0xbde643de	-0.112434134
90	0xb8f0b9e0	-0.00011478714
91	0xbe8be31b	-0.27321705
92	0xbdc3425d	-0.09534142
93	0x3dd2ed8a	0.10299213
94	0x3d52ac4f	0.051433858
95	0xbe1301e8	-0.14356196
96	0x3d1618bf	0.036644693
97	0xbe054d1a	-0.13017693
98	0x3c5f393c	0.013624486
99	0xbe827dbc	-0.25486553
100	0xbe5c1850	-0.2149365
101	0x3db1c9a5	0.08681039
102	0x3e29fab6	0.16599545
103	0xbe0939a4	-0.13400894
104	0xbdf4fe96	-0.11962621
105	0xbe477ff9	-0.19482411
106	0x3bd2a1ad	0.0064279647
107	0xbdaf0dea	-0.08547576
108	0xbd3e4432	-0.046451755
109	0xbe02d089	-0.12774862
110	0x3ae3bfb1	0.0017375854
111	0x3e275958	0.16342676
112	0x3e224ff5	0.15850814
113	0x3d99f9cc	0.07518348
114	0xbd0a140f	-0.033710536
115	0xbe93bcb1	-0.28854898
116	0xbe5b48a1	-0.21414424
117	0xbe83a9b5	-0.25715414
118	0xbe490925	-0.19632395
119	0xbe6bc3c9	-0.23023905
120	0x3da7c462	0.08191754
121	0x3e9c9ceb	0.3058847
122	0x3e0b82cc	0.13624114
123	0x3d3811ae	0.044938736
124	0xbc314020	-0.010818511
125	0x3e0de3d6	0.13856444
126	0x3e7a2a61	0.24430229
127	0x3ce28772	0.027652476
128	0x3e3f2a34	0.18668443
129	0xbe375144	-0.17902094
130	0x3df8d3a9	0.12149746
131	0x3e913843	0.28363237
132	0xbdaface8	-0.08577901
133	0xbe4ee8e0	-0.20206022
134	0xbe4a402d	-0.19751044
135	0x3e929a54	0.28633368
136	0xbdeda28b	-0.11603268
137	0x3dcb8e5f	0.099392645
138	0x3dd93661	0.10606075
139	0x3e078d7e	0.13237569
140	0x3e5713d9	0.21003665
141	0xbdf88488	-0.12134653
142	0xbbcf01b9	-0.006317344
143	0x3e1a84a3	0.1508966
144	0xbdae1e53	-0.08501878
145	0x3e420c2c	0.18949956
146	0x3e285157	0.16437279
147	0x3e88b664	0.26701653
148	0xbd4787b5	-0.048713405
149	0x3e56d9db	0.20981543
150	0x3e5b86b5	0.21438105
151	0x3dd7cd71	0.10537232
152	0xbe4322a6	-0.19056186
153	0xbdfb8e61	-0.12283016
154	0xbe3da5db	-0.185203
155	0xbe30a301	-0.17249681
156	0xbe23d14d	-0.1599781
157	0x3d806a0e	0.06270228
158	0xbd2a66a8	-0.041601807
159	0xbe4a8d51	-0.1978047
160	0x3e05224a	0.13001361
161	0xbdf21d14	-0.118219525
162	0xbe25f496	-0.16206583
163	0x3e14979b	0.14510958
164	0x3df6f453	0.1205832
165	0xbbcdad3d	-0.006276755
166	0xbe82e85d	-0.25567904
167	0x3e134e8d	0.14385433
168	0x3c82fed8	0.01599066
169	0xbe1fd736	-0.1560944
170	0xbe42d8ae	-0.19027969
171	0x3d9d1320	0.076696634
172	0x3e7186a0	0.23586512
173	0xbdbe21b8	-0.09283775
174	0xbe0e39b9	-0.13889207
175	0x3dcacde7	0.09902554
176	0xbdc02254	-0.093815476
177	0xbe46f4a5	-0.19429262
178	0xbd83a746	-0.06428389
179	0xbe49940e	-0.19685385
180	0x3d6e2cd6	0.058148228
181	0x3d5d47a8	0.054023415
182	0x3d58a653	0.052892994
183	0xbb2df502	-0.002654374
184	0xbe8bb4fb	-0.27286515
185	0x3e667113	0.22504072
186	0xbe1c2e57	-0.15252052
187	0xbe871ded	-0.2639002
188	0x3dd2f1c9	0.10300023
189	0xbe88a7ce	-0.26690525
190	0x3ced984e	0.029003289
191	0x3e0d906c	0.13824624
192	0xbe6c74d2	-0.23091438
193	0xbd5624ec	-0.052281305
194	0xbde27c4b	-0.11058863
195	0xbe059490	-0.13044953
196	0xb9d33958	-0.0004028778
197	0x3dbeab99	0.093100734
198	0x3e20cddd	0.1570353
199	0x3ea2496b	0.31696638
200	0x3e94eb5c	0.29085815
201	0xbdfafd9c	-0.122554034
202	0x3e85db17	0.26143715
203	0x3dfb1371	0.122595675
204	0x3dda44b0	0.10657632
205	0x3e1a7cda	0.1508669
206	0x3e65c6c7	0.22439109
207	0xbc943967	-0.018093778
208	0x3dfc627d	0.12323473
209	0x3e4d5b7d	0.20054431
210	0x3e6e6490	0.23280549
211	0xbdec73a0	-0.11545491
212	0xbcdd5c6d	-0.027021611
213	0xbe24f4a2	-0.16108945
214	0xbccaee1c	-0.024771743
215	0xbd1957ea	-0.037437357
216	0x3db14021	0.0865481
217	0x3e36ddb3	0.17858009
218	0xbe48ebb9	-0.19621171
219	0x3d7cb2c9	0.06169394
220	0xbd911355	-0.070837654
221	0x3e4da8e0	0.20083952
222	0x3e2f7d17	0.17137562
223	0x3e5dae61	0.21648552
224	0x3d7f9b08	0.06240371
225	0x3d95161d	0.072796084
226	0xbd08dc26	-0.033413075
227	0x3e8bd442	0.27310377
228	0x3dd770c6	0.10519557
229	0x3dfeb5e6	0.12437038
230	0xbda0dd25	-0.0785468
231	0x3a82e64b	0.0009986846
232	0xbdc3045a	-0.09522314
233	0xbc50fac1	-0.012755097
234	0x3e1b4235	0.15161975
235	0x3e7f55b0	0.24935031
236	0x3df04359	0.117315955
237	0x3dae34ca	0.085061625
238	0xbe37ff71	-0.17968537
239	0x3e4f032a	0.2021605

features.0.bias f4 [16]
0	0x3d183b6e	0.03716605
1	0x3e848279	0.25880793
2	0x3ddefd12	0.10888113
3	0x3d9dd803	0.077072166
4	0x3d0ca159	0.03433356
5	0xbe2d3a94	-0.16916877
6	0x3e2ef6f1	0.17086388
7	0x3cbfecc0	0.02342832
8	0x3dd54d59	0.104151435
9	0x3e539d42	0.20665458
10	0xbdfad9ae	-0.1224855
11	0x3bfb6ebf	0.007673114
12	0xbe53eda1	-0.20696117
13	0x3e22ecb5	0.15910609
14	0xbe354030	-0.17700267
15	0xbc647569	-0.013944008

features.3.weight f4 [32, 16, 15]
0	0x3c1de7a8	0.009637751
1	0xbca522e3	-0.020158237
2	0xbdac983b	-0.08427473
3	0xbd4fb58b	-0.050710242
4	0xbcaab0db	-0.020836284
5	0x3a99f9aa	0.0011747379
6	0xbd1199d1	-0.03554708
7	0xbdb577e2	-0.088607565
8	0xbcd2a09d	-0.025711352
9	0xbbb4c108	-0.005516175
10	0x3a0624d0	0.000511718
11	0xbd5df6a9	-0.05419031
12	0xbdbcb5d2	-0.09214367
13	0xbdb332c7	-0.087499194
14	0xbdd02391	-0.10163034
15	0xbafeae5a	-0.0019430623
16	0x3d120d48	0.035657197
17	0x3d29c315	0.04144581
18	0x3c61f021	0.013790161
19	0x3d592495	0.053013403
20	0x3cd417d3	0.025890267
21	0xbccd168e	-0.025035169
22	0x3c20508d	0.00978483
23	0x3d96f4a6	0.07370882
24	0x3c824084	0.015899904
25	0xbd134eb7	-0.03596374
26	0xbd2c4afe	-0.042063706
27	0x3d8146b4	0.06312314
28	0x3d8e94b1	0.069619544
29	0x3ca0b09a	0.01961546
30	0xbda19ff8	-0.0789184
31	0xbd41037c	-0.047122464
32	0x3b5f56c0	0.0034078807
33	0x3b1ffb4b	0.0024411257
34	0x3c8771af	0.0165337
35	0xbd60bd9a	-0.05486832
36	0x3d135783	0.03597213
37	0xbd806b17	-0.06270426
38	0xbc7e3af3	-0.015516984
39	0xbd4d57f4	-0.050132707
40	0xbd890481	-0.06690312
41	0xbc843fb1	-0.016143652
42	0xbcbaf7b8	-0.0228232
43	0x3cc4af6c	0.024009429
44	0xbce49af3	-0.027905917
45	0xbd361f39	-0.04446337
46	0xbd23284d	-0.039833356
47	0xbd81efa6	-0.063445374
48	0xbbac99cf	-0.005267359
49	0xbd5604ab	-0.052250545
50	0xbcaa9d95	-0.020827094
51	0xbca02872	-0.019550536
52	0xbd8c8096	-0.06860463
53	0xbbc29bdc	-0.00593899
54	0xbc2e90c0	-0.010654628
55	0x3b246410	0.0025084056
56	0xbca8c38c	-0.020601057
57	0xbcdd7ca0	-0.027036965
58	0xbd8d9960	-0.069140196
59	0xbd3093fe	-0.043109886
60	0x3b8ba941	0.00426212
61	0xbcf4976b	-0.029857358
62	0x3d38fa6a	0.04516069
63	0x3c2d81ca	0.010590026
64	0x3d0c9656	0.03432306
65	0x3d118494	0.035526827
66	0x3d279af3	0.040919255
67	0xbd132722	-0.03592599
68	0xbc1d0fb3	-0.0095862625
69	0x3ae6d7d8	0.0017611934
70	0x3c84ff41	0.016234996
71	0x3d5470ed	0.051865507
72	0xbbae60ff	-0.0053216214
73	0x3ab3b0aa	0.0013709266
74	0x3dae7c4e	0.08519803
75	0xbcd4daeb	-0.025983294
76	0xbd291373	-0.041278314
77	0xbccc1cc1	-0.024916055
78	0x3d35b4e6	0.04436197
79	0xbc85dbae	-0.016340103
80	0x3d7bac73	0.061443757
81	0xbaf734aa	-0.00188603
82	0xbcb28392	-0.021791253
83	0xbbad97a8	-0.00529762
84	0x3cd37822	0.02581412
85	0x3c58851a	0.013215328
86	0x3cd0bb38	0.025479898
87	0x3d73e83b	0.059547644
88	0x3c6eacb4	0.014567543
89	0x3d8239c1	0.06358672
90	0xbbcfa9f4	-0.0063373987
91	0x3d39c90d	0.045357753
92	0x3cf5ed30	0.030020326
93	0x3d3da4da	0.046299793
94	0x3c065386	0.0081986245
95	0x3c5be3cf	0.013421013
96	0xbbab2d4b	-0.005223905
97	0x3d9651b6	0.07339804
98	0xbabfcf58	-0.0014633937
99	0xbd565240	-0.052324533
100	0xbb994fc8	-0.0046787
101	0xbc61a0bd	-0.013771233
102	0xbcf024e7	-0.029314471
103	0x3cf3295f	0.029682813
104	0x3d78c9ec	0.060739443
105	0x3d61027d	0.054934014
106	0x3c4672ed	0.012112361
107	0x3d39608a	0.045258082
108	0x3dbe9eda	0.09307642
109	0x3d6fc8f8	0.058541268
110	0x3c5e2f88	0.013561137
111	0x3d9692a4	0.07352188
112	0x3d7568c7	0.059914377
113	0x3da53fe7	0.08068829
114	0x3da579aa	0.08079846
115	0xbcec1ddf	-0.028822837
116	0xbbd993eb	-0.0066399476
117	0x3da7c533	0.0819191
118	0x3cd0d174	0.0254905
119	0x3da7d180	0.08194256
120	0x3c26e9a6	0.010187542
121	0x3d026a3e	0.0318396
122	0x3a6bc311	0.0008993606
123	0x3c3af6de	0.011411397
124	0xbc887da3	-0.01666147
125	0xbd53526d	-0.05159228
126	0x3d065ea5	0.032805104
127	0xbc2898a3	-0.010290298
128	0x3bf5b021	0.007497803
129	0x3cb58e03	0.022162443
130	0x3d3e2ee5	0.04643144
131	0xbd47ea99	-0.048807714
132	0xbd04d94a	-0.032433785
133	0x3d05970b	0.03261475
134	0xbd2af560	-0.041737914
135	0xbd464a43	-0.048410665
136	0xbd9178d0	-0.07103121
137	0x3cc4b5ba	0.024012435
138	0xbc19bd32	-0.009383487
139	0x3d2a9869	0.041649256
140	0xb9d2e522	-0.00040225039
141	0xbcaf8e4e	-0.02143016
142	0x3d6d8255	0.057985622
143	0xbc4ca18e	-0.0124896895
144	0xbcfd5cdd	-0.03092807
145	0xbd92246b	-0.071358524
146	0x3b9db8af	0.0048132758
147	0x3cab6adf	0.020924984
148	0xbd90aa28	-0.07063705
149	0x3b6d51c9	0.0036212078
150	0x3d62a78e	0.055335574
151	0x3cdb912c	0.026802622
152	0x3d939f53	0.07208123
153	0xbbcadd2a	-0.0061909156
154	0x3db9f63a	0.09080167
155	0xbbeebff8	-0.007286068
156	0x3d9e62a2	0.077336565
157	0x3b48a7ab	0.0030617516
158	0x3d4b8eee	0.049696855
159	0xbd2b26ea	-0.04178516
160	0x3d9c8644	0.07642797
161	0x3c0fa96c	0.008768421
162	0x3cb4bc02	0.022062305
163	0x3dbc8f10	0.092069745
164	0x3d388db4	0.045057014
165	0x3d1b6e91	0.03794724
166	0xbce93035	-0.02846537
167	0x3da8b44c	0.08237514
168	0xbc0cd559	-0.008595788
169	0x3cd378ea	0.025814492
170	0x3ac879b6	0.0015295062
171	0xbcd906ba	-0.026492465
172	0x3caaa20d	0.020829225
173	0x3b3b6084	0.0028591463
174	0x3d7a7afc	0.061152443
175	0x3d83d7f8	0.06437677
176	0x3ca92c23	0.020650929
177	0x3d80ded4	0.06292501
178	0xbcbeba69	-0.023282247
179	0xbcaacc48	-0.020849362
180	0x3c225e07	0.009910113
181	0xbc8048b3	-0.015659666
182	0x3dc2f42f	0.095192306
183	0x3d629623	0.055318963
184	0x3db502b7	0.088384084
185	0x3d559e18	0.052152723
186	0x3d5919b1	0.053003017
187	0x3db0d1c5	0.0863376
188	0x3d20c650	0.039251626
189	0xba07d952	-0.00051822246
190	0x3be075e0	0.0068499893
191	0x3d165b82	0.036708362
192	0x3dc6cb80	0.09706783
193	0x3cf21178	0.029549345
194	0x3d3067bf	0.04306769
195	0x3d075626	0.033041142
196	0xbd988fb7	-0.074492864
197	0xbd7afe8a	-0.061277904
198	0x3c683a7c	0.0141741
199	0xbd6d6d5a	-0.057965614
200	0x3c5b3a39	0.013380581
201	0xbcfcd11e	-0.030861434
202	0x3d0fbd91	0.035092894
203	0xbd14714c	-0.03624086
204	0x3bfdea46	0.007748875
205	0x3cd9fd25	0.026609967
206	0x3cb64c09	0.022253053
207	0xbd572556	-0.05252584
208	0xbd91dfad	-0.07122741
209	0xbbd51c19	-0.0065035936
210	0x3d1d7597	0.03844222
211	0x3d83e59a	0.064402774
212	0x3d17f028	0.037094265
213	0x3bd4b26f	0.0064909975
214	0xbcb810dc	-0.022468977
215	0x3d24f2e2	0.040270694
216	0x3d86e0ee	0.06585871
217	0xbcc227af	-0.023700563
218	0x3d960158	0.07324475
219	0x3cb7099f	0.022343455
220	0xbcd0a01d	-0.025466973
221	0x3d8839cc	0.06651649
222	0x3d3a22a0	0.045443177
223	0x3daeda1a	0.08537693
224	0xbd21f217	-0.039537515
225	0x3ca1e8d7	0.019764347
226	0x3d3a4574	0.045476392
227	0x3aa493f9	0.0012556306
228	0xbcb720f2	-0.022354577
229	0x3c7fade6	0.015605425
230	0xbc2fd8d1	-0.010732845
231	0x3d603814	0.05474098
232	0x3c19f2ed	0.009396297
233	0xbd59eb9c	-0.05320321
234	0xbcb95111	-0.022621663
235	0x3c977c90	0.018492013
236	0xbcfd9780	-0.03095603
237	0xba51fdef	-0.00080105563
238	0xbd2f5e10	-0.042814314
239	0x3d560f8c	0.05226092
240	0x3bb62039	0.0055580405
241	0xbd650f65	-0.055922884
242	0xbd11ae4b	-0.03556661
243	0x3d62461e	0.05524265
244	0x3d6dfeec	0.05810444
245	0xbd13a503	-0.03604604
246	0xbcbf81a7	-0.023377253
247	0x3c874b70	0.016515464
248	0xbd070ae1	-0.03296936
249	0xbc555e50	-0.013022974
250	0xbd81510d	-0.06314287
251	0x3c87ebb9	0.016591894
252	0xbd684cfb	-0.05671404
253	0x3cd8a2cd	0.026444817
254	0x3c3b280b	0.011423121
255	0xba074ec3	-0.0005161578

features.3.bias f4 [32]
0	0x3d7269be	0.059182875
1	0xbd325b78	-0.043544263
2	0xbd5e92b3	-0.054339122
3	0xbc441492	-0.011967795
4	0x3dc505fc	0.09620282
5	0xbd3f80b7	-0.04675361
6	0x3c8a215b	0.016861608
7	0xbc75a5e0	-0.014993161
8	0x3d17df57	0.037078228
9	0x3d83b108	0.064302504
10	0x3ce0ec7b	0.027456513
11	0x3cfd0314	0.030885257
12	0xbd6623bc	-0.056186423
13	0x3cb11dcd	0.021620655
14	0xbd8a9e66	-0.06768493
15	0x3d2e8f68	0.04261723
16	0x3c9f6a3e	0.01945984
17	0xbd271188	-0.040788203
18	0xbd810da2	-0.063014284
19	0xbd1c39c5	-0.03814103
20	0x3b64c678	0.0034908336
21	0xbc361ff5	-0.011116018
22	0x3d3bb7c7	0.04582956
23	0xbd2133af	-0.03935593
24	0x3d952213	0.0728189
25	0x3c03a838	0.008035712
26	0x3cd9a26d	0.026566708
27	0xbcc444e6	-0.023958635
28	0xbabe0417	-0.0014497068
29	0xbc1054f2	-0.008809315
30	0x3db6b8a4	0.08921936
31	0xbca97275	-0.02068446

features.6.weight f4 [64, 32, 15]
0	0x3c4c57e4	0.012472127
1	0x3d82b5fb	0.06382366
2	0x3d1d549b	0.038410764
3	0x3d999c61	0.0750053
4	0xbc06cd30	-0.008227631
5	0xb9f131c7	-0.0004600419
6	0x3c89f13a	0.016838659
7	0x3d5834f5	0.05278488
8	0x3cbfd7cf	0.023418335
9	0x3d55fcfb	0.052243214
10	0x3cd08b97	0.025457187
11	0x3cba6dd0	0.02275744
12	0x3c0fba2b	0.008772413
13	0x3d92ea8c	0.071736425
14	0x3d006a52	0.031351395
15	0x3cf83bc5	0.030301938
16	0x3c130d69	0.008975365
17	0xbcf95c82	-0.030439619
18	0x3c9520e4	0.01820416
19	0x3d3c9c01	0.046047214
20	0x39e5b5f4	0.0004381385
21	0x3d0d5ae9	0.034510527
22	0x3d4b4aed	0.049632
23	0x3cc7df70	0.024398535
24	0xbcac674b	-0.021045348
25	0x3b9d3597	0.004797648
26	0xbd098923	-0.03357805
27	0x3d3ec97d	0.046578873
28	0x3c57047b	0.013123627
29	0x3d3df60f	0.046377238
30	0x3b346569	0.0027526265
31	0xbc60a3bf	-0.013710915
32	0x3cb8c798	0.022556111
33	0x3c17f139	0.009273821
34	0xbcbb0832	-0.022831056
35	0x3ccd4c6a	0.025060851
36	0xbc9b76f0	-0.018977612
37	0xbc69298d	-0.014231098
38	0x3cd59077	0.026069863
39	0xbcb7e701	-0.022449018
40	0xbbab88af	-0.0052348
41	0xbd0f4cb5	-0.034985263
42	0x3d338a0e	0.04383283
43	0xbc61cf2b	-0.013782303
44	0xbca579fc	-0.020199768
45	0x3da6d932	0.081468955
46	0x3d0109e3	0.03150357
47	0x3dc2dae9	0.0951441
48	0x3d3cb56a	0.046071447
49	0x3cac4f58	0.021033928
50	0x3dbf79e4	0.09349421
51	0x3dc0e487	0.09418588
52	0x3c0b6f79	0.008510464
53	0x3da7216b	0.08160671
54	0x3d662242	0.056185015
55	0x3dc425da	0.09577532
56	0x3db8e416	0.09027879
57	0x3dc64cbb	0.09682604
58	0x3d529663	0.05141295
59	0x3d60adb5	0.05485316
60	0xbca7d278	-0.020486102
61	0xbd0c2dde	-0.03422343
62	0x3be34610	0.0069358423
63	0xbc48f22a	-0.012264768
64	0xbd615d90	-0.05502087
65	0xbcf4eea8	-0.029898956
66	0xbca640c4	-0.020294555
67	0x3c0a0acd	0.008425427
68	0xbd91426b	-0.07092746
69	0xbcad0df9	-0.021124827
70	0xbd902d0c	-0.07039842
71	0xbc939b73	-0.01801846
72	0x3c4fca97	0.0126825785
73	0xbd48358d	-0.048879195
74	0xbd19221c	-0.037386045
75	0x3a85bbd9	0.0010203078
76	0x3c8b4724	0.017001696
77	0x3d0960d5	0.03353961
78	0x3d04a261	0.03238142
79	0x3d15894b	0.036507886
80	0x3d014281	0.031557564
81	0x3d9d9a35	0.07695428
82	0xbb6aac2b	-0.0035808187
83	0x3cafc407	0.021455778
84	0x3c292bad	0.0103253545
85	0x3d8bca5f	0.068257086
86	0x3d2e9e39	0.04263136
87	0x3cba3880	0.02273202
88	0x3cb7b8c2	0.022426967
89	0x3d7e8a82	0.06214381
90	0x3cd4b7ed	0.025966609
91	0x3d82add2	0.0638081
92	0x3d087200	0.033311844
93	0x3c985fb1	0.018600317
94	0x3c0be2bf	0.008537947
95	0x3d90ea81	0.07075978
96	0x3d6c0023	0.057617318
97	0x3d1f68e3	0.038918387
98	0x3d54f837	0.05199453
99	0x3d8df053	0.06930604
100	0x3c88d60c	0.016703628
101	0x3d927451	0.07151092
102	0x3d7340f2	0.05938811
103	0x3d8ee9a1	0.06978155
104	0x3d452a18	0.048135847
105	0x3d341cf0	0.04397291
106	0x3d01e6f2	0.031714387
107	0x3cd1391f	0.025539933
108	0x3d0245c4	0.031804815
109	0x3d372a4d	0.044718076
110	0x3caa0d31	0.020758243
111	0x3d25cf43	0.040480863
112	0x3ce9f045	0.028556952
113	0x3d16ed05	0.036847133
114	0x3d7310c3	0.059342157
115	0x3bdeaa6c	0.006795218
116	0x3d0d35d8	0.034475178
117	0x3cd1fd60	0.025633514
118	0x3d7fadab	0.062421482
119	0x3d729602	0.05922509
120	0x3d4cd361	0.050006274
121	0x3d3f4ff5	0.046707112
122	0x3d18b419	0.03728113
123	0x3d997aff	0.07494163
124	0x3b459238	0.0030146968
125	0xbb250635	-0.0025180702
126	0x3cd91663	0.026499933
127	0x3cd58543	0.02606452
128	0x3c8fd221	0.017556252
129	0x3d6d0ed7	0.05787548
130	0x3d376d3b	0.044781905
131	0x3bd6b863	0.0065527423
132	0x3d7705c5	0.060308237
133	0x3d8410ef	0.06448542
134	0x3da3186e	0.07963644
135	0x3da59102	0.08084299
136	0x3daf367a	0.085553125
137	0x3d8407be	0.06446789
138	0x3cf6505d	0.030067617
139	0x3d3020c4	0.042999998
140	0x3c77fdfd	0.015136239
141	0x3d544753	0.051825833
142	0x3d5bc579	0.05365512
143	0x3d21f481	0.039539818
144	0x3aa961c8	0.0012922818
145	0x3d51a74e	0.051184945
146	0x3da2ef86	0.07955842
147	0x3d04090a	0.032235183
148	0x3d95cc91	0.073144086
149	0x3d800fff	0.06253051
150	0x3d6b4d7f	0.057446953
151	0x3d45a04b	0.04824857
152	0xbb39805d	-0.002830527
153	0x3da23232	0.0791973
154	0x3d6e9d6a	0.05825559
155	0x3cb73ea5	0.022368738
156	0x3d04d22f	0.03242701
157	0x3c2bcf6f	0.010486468
158	0x3c45f9e2	0.0120835025
159	0x3c446925	0.011987959
160	0x3b6e3ec0	0.003635332
161	0x3d04eb12	0.032450743
162	0x3d60e1ec	0.054902956
163	0x3da20c74	0.079125315
164	0x3cf78bf7	0.030218108
165	0x3d31b9d4	0.04339011
166	0x3d10e80d	0.03537755
167	0x3c85b6a6	0.016322445
168	0x3d9652fe	0.07340048
169	0x3d94f6ef	0.07273661
170	0x3c0c533f	0.008564769
171	0x3cd02de6	0.025412511
172	0x3d2ff210	0.04295546
173	0x3ce42179	0.027847992
174	0x3c2b66da	0.010461533
175	0x3c50d43b	0.012745912
176	0x3daaf24c	0.08346996
177	0x3d9f5f10	0.077818036
178	0x3d86344b	0.06552943
179	0x3daa56f0	0.08317363
180	0x3ca10512	0.019655738
181	0xbcff19dd	-0.031140262
182	0x3cfe8943	0.03107131
183	0x3d247661	0.040151957
184	0xbcaab569	-0.020838456
185	0xbb97f028	-0.004636783
186	0x3c0b0e1c	0.008487251
187	0xbc628479	-0.013825529
188	0xbb98c38d	-0.0046619833
189	0x3d1e2ad9	0.03861508
190	0x3bb15f51	0.005412974
191	0xbcbf6462	-0.023363296
192	0x3c90c919	0.017674016
193	0x3bffb177	0.007803138
194	0x3d4b5481	0.049641136
195	0x3d5eb687	0.05437329
196	0x3cdf5cd6	0.027265947
197	0x3bb43c5c	0.0055003595
198	0x3cd6fdf9	0.02624415
199	0xbc6321e9	-0.013863065
200	0xbcf8893c	-0.030338876
201	0x3d4d7de5	0.05016889
202	0xbcbdc9a9	-0.023167448
203	0x3d1ee262	0.038790114
204	0x3b75a599	0.0037482737
205	0x3d4f6006	0.050628684
206	0xbceea37f	-0.029130695
207	0xbca80833	-0.020511722
208	0x3d5cd464	0.05391349
209	0x3c29c4bb	0.010361846
210	0x3d0f916c	0.035050794
211	0xbcec0505	-0.028810987
212	0x3c3aa444	0.011391703
213	0x3d1b17ba	0.037864424
214	0xbd1275db	-0.035756927
215	0x3c128391	0.008942501
216	0xbccdb484	-0.02511049
217	0x3cbd792e	0.023129072
218	0xbce02811	-0.027362855
219	0xbccfd862	-0.025371734
220	0xba4057ee	-0.00073373213
221	0xbcd5ee6d	-0.026114667
222	0xbceef6e9	-0.02917047
223	0xbd1a1dda	-0.037626125
224	0xbc12f0f4	-0.0089685805
225	0x3bc1b437	0.005911376
226	0x3c01cdf1	0.007922635
227	0xbc0e6d43	-0.008693042
228	0x3c8b8104	0.017029293
229	0x3d472702	0.048621185
230	0x3bcae4d8	0.006191831
231	0xbc275117	-0.010212204
232	0x3d1a02c3	0.03760029
233	0x3c194a73	0.009356129
234	0x3d9e7ff3	0.07739248
235	0xba80e066	-0.0009832501
236	0x3b9ffd7e	0.0048825135
237	0x3bba9084	0.005693497
238	0xbbe4bdfa	-0.006980655
239	0x3d724af9	0.05915353
240	0x3d092ba2	0.033488877
241	0xbc192b8f	-0.009348764
242	0x3d201b72	0.039088674
243	0x3d268cc1	0.040661577
244	0x3d022f5e	0.031783454
245	0xbc80b7f2	-0.015712712
246	0xbc9ff826	-0.019527506
247	0xbc05953a	-0.008153254
248	0xba66dbaa	-0.0008806536
249	0x3ae7a028	0.0017671632
250	0xbb5db219	-0.0033828078
251	0xbcb67d3c	-0.022276513
252	0x3b2f6213	0.0026761338
253	0x3d5cd611	0.053915087
254	0x3d705849	0.058677945
255	0x3d969220	0.0735209

features.6.bias f4 [64]
0	0xbc2381ab	-0.009979646
1	0xbcd9fe00	-0.026610374
2	0x3bffe5aa	0.0078093605
3	0x3a41e526	0.00073965115
4	0xbc44e704	-0.012017969
5	0x3da1f3f6	0.0790786
6	0x3d816d63	0.06319692
7	0xbc1f40fa	-0.009720081
8	0x3c4c8522	0.012482913
9	0xbc38f0dc	-0.011287894
10	0xbcfa42f4	-0.030549504
11	0x38cd0ab1	9.777153e-05
12	0xb9f91932	-0.00047511753
13	0xbd40be9f	-0.04705679
14	0x3be5412a	0.0069962936
15	0xbd15b41e	-0.036548726
16	0x3d0d4d60	0.03449762
17	0x3b605a7e	0.0034233625
18	0xbb44780a	-0.0029978775
19	0xbd295a6f	-0.04134601
20	0x3d83153c	0.064005345
21	0x3d9fe318	0.078069866
22	0xbc52e55b	-0.012872065
23	0x3d2c0126	0.041993283
24	0x3c1c4756	0.009538492
25	0xbc26bacc	-0.010176372
26	0x3c904fa3	0.017616099
27	0x3d48ab8f	0.048991736
28	0xbcab1e41	-0.02088845
29	0xbc871441	-0.01648915
30	0xbbedd053	-0.0072575
31	0xbcaaca36	-0.020848375
32	0xbd34b64e	-0.04411917
33	0xbc875592	-0.016520295
34	0x3d8ce5e6	0.06879787
35	0xbd10b172	-0.035325475
36	0x3ba64629	0.0050742817
37	0xbd15f6ba	-0.03661225
38	0xbd07b6fe	-0.0331335
39	0xbb77057a	-0.0037692473
40	0x3d56e2be	0.052462332
41	0x3b8949b1	0.004189693
42	0xbca24fd0	-0.019813448
43	0xbd26f257	-0.040758457
44	0xbb9f9de3	-0.0048711165
45	0x3a953e83	0.0011386428
46	0x3915af79	0.00014275116
47	0x3d830be2	0.06398751
48	0xbd5cef1f	-0.05393898
49	0xbd09860f	-0.033575114
50	0x3bf6689d	0.007519795
51	0xbd163e91	-0.03668076
52	0x3c0a4fb7	0.008441857
53	0x3bc3d673	0.005976492
54	0xbcb92dd8	-0.022604868
55	0xbd09c3cb	-0.03363399
56	0xbb8ef5f9	-0.0043628183
57	0x3b24a74c	0.002512413
58	0xbc3989e0	-0.011324376
59	0x3d8a3108	0.06747633
60	0x3ceb2a79	0.028706776
61	0xbc01729e	-0.007900862
62	0x3d103678	0.035208195
63	0x3d5ced27	0.053937104

classifier.1.weight f4 [1, 64]
0	0x3ddf96c6	0.109174296
1	0x3c5c76b0	0.013456032
2	0xbd12bf55	-0.035827
3	0x3e0ce4b9	0.13759126
4	0x3d9ddb63	0.0770786
5	0xbe0d0ef5	-0.13775237
6	0xbe382ea3	-0.1798654
7	0x3d73ffd4	0.05957015
8	0xbb8a2a71	-0.004216485
9	0x3d918118	0.07104701
10	0xbd5f2503	-0.054478657
11	0x3d1f0b38	0.03882906
12	0xbe1eb0e9	-0.15497173
13	0x3cd7ee9e	0.026358899
14	0x3dbc3ad7	0.0919091
15	0xbda72419	-0.08161182
16	0xbe03bf48	-0.12865937
17	0xbda36f3f	-0.07980203
18	0xbdbdf0d9	-0.09274454
19	0xbd9925a2	-0.07477881
20	0xbe2a3a10	-0.16623712
21	0xbdf6f6ff	-0.120588295
22	0x3da2b926	0.079454705
23	0xbdd2088a	-0.10255535
24	0x3e0143c5	0.12623508
25	0x3e1fe13a	0.15613261
26	0xbe0aaf0d	-0.13543339
27	0xbe1e7fa7	-0.15478383
28	0x3d3d5eb5	0.046232898
29	0x3dfa6d85	0.122279204
30	0x3ccd1243	0.025033122
31	0x3e104a0b	0.14090745
32	0xbd3c8207	-0.04602244
33	0x3dbdf4c1	0.09275199
34	0xbdf5451e	-0.11976074
35	0xbd604867	-0.05475655
36	0xbe313455	-0.1730512
37	0x3d8b46ec	0.06800637
38	0x3d937c8e	0.07201491
39	0xbdc89d51	-0.09795631
40	0xbdbce627	-0.092235856
41	0xbda9c0cc	-0.08288726
42	0x3e017a93	0.12644415
43	0x3dd94619	0.10609073
44	0xbd6ef4ec	-0.058339044
45	0x3d257304	0.04039289
46	0xbd9c4cc8	-0.07631832
47	0xbe161dd6	-0.14659819
48	0x3d908fa6	0.07058649
49	0x3dc3c919	0.09559841
50	0x3dd4faf1	0.10399426
51	0x3e216bcf	0.15763782
52	0x3da00dc8	0.078151286
53	0xbd1fabd5	-0.03898223
54	0x3d8494f5	0.06473724
55	0xbd2eaa2c	-0.042642757
56	0xbe129773	-0.14315586
57	0xbe37432f	-0.17896722
58	0x3d841975	0.06450168
59	0xbdffe8a7	-0.12495547
60	0xbe35a16f	-0.17737363
61	0x3e0bc286	0.13648424
62	0xbe1f8de6	-0.15581474
63	0xbdbab914	-0.09117332
