backend/app/working_model/moth_final.ckpt (torch, 22277 bytes, 7 tensors)

net.0.weight f4 [16, 1, 15]
00000000: 7899 92be 4add 35be 36e6 1c3d c4d9 98bd
00000010: 4dbc 4e3e b329 92bb f086 333b 62e5 90bd
00000020: 15f0 2f3e fae9 36be 9c75 f63d 76be 0dbe
00000030: c9e9 2b3d eb9b f13d ee16 cd3d a4f6 60bd
00000040: ab95 b7bd aa25 08bc 4ec6 b9bd 2979 0c3e
00000050: 9d75 70bd 40b1 81be 582c 99be 6156 10be
00000060: 9120 c2bd 0a3e f4bd 0818 a33d 27c4 b2bd
00000070: 3bed 64bd e025 32be 8fea 7abe 261d 3b3e
00000080: 2b87 0bbe 8ddc e33d b74b 26bd 2477 14bc
00000090: 2e86 683e 69ec 5d3c 8a1b 86be 2e6b 94be
000000a0: 9921 63be 275b 15be cea8 ea3d ddf9 4a3b
000000b0: e7c6 89be 215d 4a3e 3220 0f3e b11a a8bd
000000c0: 2cdc 18be 9ea4 003e 1f7d 893d c8d5 873e
000000d0: 678c 863e d5b4 3ebe 896a 7c3e 0cd2 6c3e
000000e0: 3b79 58be 4b73 8f3e b319 19bc e024 05be
000000f0: 438b 3c3d 7d3c 48be 142a 5d3e 37b4 43be
00000100: 6ac7 203c ab39 70be 01a1 803c 7edc 09be
00000110: 0753 b43c c00d 9dbd 6d9f 423e 83ca 353e
00000120: bf13 2f3e 0afb 883e ba68 523e 85fb 413e
00000130: b02e 32be 0e2b 83be 0d36 04be 1a8b 813d
00000140: 58f2 b4bc f5a4 75be b4f6 50be 9981 db3d
00000150: 0db9 8fbe 2fc3 c4bd 5e4f aebd 9bc2 4c3b
00000160: d764 ccbd 518a a43c cbb7 123e 353e ccbd
00000170: 27ad da3b c0d3 f7bd 170b 11be dc58 f63d
00000180: 550d 5fbc 3a10 94bd 9b53 89bd 1db7 46be
00000190: 2250 b43d 50f9 263e caf3 b43d a02f 5cbc
000001a0: cb85 49bd cc41 4abe 9fe6 e2bd 32d2 7cbd
000001b0: c629 fc3d 4321 67be e1e8 83be ba9a 9dbd
000001c0: 01be 7d3d b1d9 a4bd 4c3e 0abe 2376 1ebd
000001d0: ee09 aa3c 1395 c4bc 3679 973d 6294 7f3e
000001e0: 0104 6a3e 3a99 1e3e 74e4 613e 27f6 983e
000001f0: 6ce0 73be 7ee2 e7bd 4a48 a9bd 4054 49bd
00000200: c5d1 0ebe 087d 01be c48f c33d 2d96 263d
00000210: 25dc 953d 3b11 58be 9009 45be fe45 42be
00000220: 572a 0cbe 9b72 f1bd 779f 9dbe ac29 87be
00000230: 0cbe 8dbe 7fd7 2ebe 6d85 4f3e 1863 47bb
00000240: 9125 99bd 3245 b9bd a039 26be 3754 b83c
00000250: 3e2f 6abe 6ce5 d53d aa0e 24bd d993 353e
00000260: 11bd aabc 48b6 6b3d c6a9 afbd 66f3 5e3e
00000270: 1de7 333d 1816 5e3d 31ab 56be bf61 36be
00000280: df10 41be 415c a53b 27bd 2ebe bc94 4d3e
00000290: 8ace 1b3d a34a 1e3e 6b0a 54be 5798 20bd
000002a0: 5ca6 603e 220d 6dbd 5606 823d e0cd 873e
000002b0: 68ef 4dbd 5a49 093e 1d50 d7bd f76f 26be
000002c0: f9cd 223e da83 243e f745 23be 65b8 04be
000002d0: 261a 933e 80b8 bfbd 49f7 a33d e37f c43d
000002e0: 6751 4d3e 497e 853d dffd 933e aa0f 823e
000002f0: 8ffb 803e 98d0 013d 3ecb a93d 97a9 a4bd
00000300: a1d8 743e 08f5 803d 1333 013e f3fe 26be
00000310: c468 40be 39a9 103d 2637 80be 2767 723e
00000320: c8af d13c f5ca 653e 522c c1bd c30a 46bd
00000330: da15 6d3e fbee c0bc ffbd 9ebd 55a3 9ebd
00000340: 2557 bc3d 8ed2 843e 2230 953e cb8a 993e
00000350: 33f1 d8bc 3c9a 8d3e a2e8 0d3e 59a3 79bd
00000360: cad3 633e 0f56 8d3e 6e84 88bd 6f97 0dbe
00000370: 95de 8e3d 7203 1abd cdda 15be ba9f 863d
00000380: 3e1a 2f3d 16a8 ec3d 3554 30be d121 58be
00000390: 3b62 30bd 42e6 7c3e 5362 40bc 9584 713e
000003a0: 4a3a b6b9 d88b 833e 5be4 723d f627 2abe
000003b0: dd16 54be 4273 1ebe e7fd 6fbe e4a6 48be
-0.28632712 -0.17760196 0.038305484 -0.074634105 0.20189019 -0.0044605373 0.0027393661 -0.07075001
0.17181428 -0.17862692 0.12034151 -0.13842186 0.041971 0.11797317 0.10014139 -0.054922715
-0.08964094 -0.008309761 -0.09071027 0.13718094 -0.058705915 -0.25330544 -0.29916644 -0.14095451
-0.09478868 -0.119258955 0.07963568 -0.08728819 -0.055890303 -0.1739726 -0.2450354 0.18272838
-0.13625781 0.11126051 -0.04059955 -0.009061608 0.22707435 0.013545134 -0.26192886 -0.28988022
-0.22180785 -0.14585553 0.11457978 0.0030971684 -0.26909563 0.19762088 0.13977125 -0.08208216
-0.14927739 0.12562796 0.06713318 0.2653029 0.26278993 -0.1862367 0.24650015 0.23127002
-0.21139996 0.2801765 -0.009344506 -0.13002348 0.046031248 -0.19554324 0.21598083 -0.19111715
0.009813169 -0.23459499 0.015701773 -0.13463017 0.022012247 -0.07668638 0.19006129 0.17753033
0.17097376 0.26754028 0.20547763 0.18943603 -0.17400622 -0.25618786 -0.12911244 0.0632536
-0.022088215 -0.23988707 -0.2040661 0.10718078 -0.2807087 -0.09607541 -0.08511232 0.0031243924
-0.09980171 0.020085486 0.14327924 -0.099728025 0.0066734734 -0.12100935 -0.14164387 0.12028667
-0.013614018 -0.072296575 -0.067053996 -0.1940579 0.088043466 0.16306043 0.088355616 -0.013439089
-0.04919986 -0.19751662 -0.11079144 -0.061723895 0.12312655 -0.22571282 -0.2576361 -0.076955274
0.06194878 -0.08049334 -0.13500327 -0.038686883 0.020756688 -0.023996865 0.07396166 0.24958947
0.2285309 0.15488139 0.22059804 0.298753 -0.23816079 -0.11322497 -0.08265741 -0.049152613
-0.13947208 -0.12645352 0.095489055 0.040670563 0.0731738 -0.21100323 -0.19241929 -0.18972012
-0.13688026 -0.117894374 -0.30785725 -0.2639898 -0.27684057 -0.17074393 0.20265742 -0.0030424055
-0.07477868 -0.09046401 -0.1623292 0.022501094 -0.22869584 0.104441494 -0.040053047 0.1773218
-0.020842107 0.057546884 -0.085773036 0.21772537 0.04392158 0.05422029 -0.20963742 -0.17810725
-0.18854092 0.005046398 -0.17064343 0.20076269 0.038038768 0.15458159 -0.20707099 -0.039207783
0.21938461 -0.057873853 0.06348865 0.26524258 -0.050277144 0.13406888 -0.10513327 -0.16253649
0.15898885 0.16065922 -0.15944658 -0.12960966 0.28730887 -0.093613625 0.0800615 0.09594705
0.20050584 0.065182276 0.28904626 0.25402576 0.25191924 0.03169307 0.082907185 -0.08040159
0.23910762 0.06296736 0.1261714 -0.16308193 -0.18789965 0.035317633 -0.25042075 0.23672162
0.025596514 0.22440703 -0.094322816 -0.048350107 0.23152867 -0.023551455 -0.07751083 -0.07745997
0.09196309 0.2594189 0.29138285 0.29988703 -0.0264822 0.27656734 0.13858274 -0.060946796
0.2224876 0.2760472 -0.06665884 -0.13827299 0.06976048 -0.037600942 -0.14634247 0.06573434
0.042749636 0.11555497 -0.17219622 -0.2110665 -0.04306243 0.24697211 -0.011742192 0.23585732
-0.00034757174 0.2569263 0.059299808 -0.16616806 -0.20711847 -0.15473655 -0.234367 -0.19594914

net.0.bias f4 [16]
00000000: ff5e 8e3e 4d96 27be 0de3 073e c24d 853e
00000010: 5a35 863e 7f58 013e af1c 82bc 53c5 073e
00000020: b3b7 8a3e 70c7 333e a2a7 fc3d 075a c2bb
00000030: e28f eebc d33f 773c 4e5e 923d 8670 a5bc
0.2780685 -0.16365929 0.13270207 0.26035887 0.2621258 0.12631415 -0.015882818 0.13258867
0.27093276 0.17556548 0.12336661 -0.0059311423 -0.029121343 0.0150909005 0.071468934 -0.020195257

net.2.weight f4 [32, 4, 15]
00000000: 4fc8 56bd 6d59 873c 795d 8c3c b769 163e
00000010: 0e2a b83d e708 7a3d 6047 b9bd 3f46 cabd
00000020: e8d0 ab3d 1992 69bd a7e1 23bd 8832 273c
00000030: 3a5f 93bc cfe6 763d 4e72 c23d 1732 033d
00000040: 5ad5 393d 550c 633b 965a 96bd 2d54 813d
00000050: 6388 1a3e 8631 c0bc f1bb 163e 4d72 a73d
00000060: ddc3 6c3d ba36 c53d 76f1 73bd 09fd 2a3c
00000070: e180 6e3d ea50 a9bd 338f 22bd e2f9 fe3c
00000080: d38b 073e b524 66bd f040 283c aeaf 933d
00000090: 1106 b3bc 3341 70bd 62da 93bd 0d78 103e
000000a0: df4c cdbd 7c8a a23c f2bf 8abd 9c4e 9b3d
000000b0: 2f28 383d 0f2d 37bd 5f17 ff3d 6141 d5bc
000000c0: 3b78 153d d17f ed3d 2205 cb3d d451 573d
000000d0: d79f f73c 03c5 3dbc 1859 b73d fd18 633d
000000e0: 9eea d03d dc4d 083d cb04 273d ec90 513d
000000f0: 628e fd3d cc98 073c 0853 33bc 4a59 d23d
00000100: 60a9 ebbb e1bd 153e 63e8 6d3d c1d9 1c3d
00000110: 44c3 0c3e c6f7 dd3d 8c38 c0bb 398f ae3d
00000120: 568a 1f3e 0db9 303d 642a 193e 0ba9 083e
00000130: c9f7 883c 07d9 483d 0d21 97bd 20a4 9b3d
00000140: a0c8 b83c 14c8 223d c675 8bbd 9537 4e3c
00000150: a8b2 cc3d 7319 943d 96f2 173e 421e 18bd
00000160: 3990 de3d 1636 b7bd f7a3 593d ff86 1f3e
00000170: fc12 943d 5f58 89bd c4fb fb3d 112d 163e
00000180: 9f4b b5bc c9f2 1dbd 7512 b7bd 5139 bcbd
00000190: ff46 203d 7602 90bc 2f78 783d d886 5a3d
000001a0: 0a6f cd3c 0b45 e1bc 62b2 8aba b1f6 adbd
000001b0: 6f83 8d3d 1dcb 4abd 2f4f 3ebd 75a0 ba3c
000001c0: 7bfd 643d 70ea 283e bb6d 1ebd 01f4 c63c
000001d0: 71a1 323e ec60 ff3a b36b 173c ba11 a33d
000001e0: 15f6 c1bc 75eb 33bd 20a5 16bb f3b1 053e
000001f0: f1f3 063d a65a 3c3d 72c6 f43c 28f5 283c
00000200: 7f7f 493d 0d57 e83d c975 0e3e 1d33 2e3d
00000210: 846c 013e 1829 42bd 4b1b 8f3d 3d77 c2bd
00000220: 89ad 20bd daf3 89bd 5fdb 9bbd 11b2 c33d
00000230: 95d3 db3d 1645 03bc 066b c63c e601 003e
00000240: 83a8 d4bc 64a9 a43d 8b08 013e ad5c c1bd
00000250: ce1b b43d d0b8 91bd 43ee 803d 480e b53b
00000260: 67ed c43d 5faf 383e db9b 253e 2524 c33d
00000270: f37f 38bd 6fe8 083e 9fe1 153e 3e14 9dbd
00000280: 9a94 013d 3878 083e 1d97 633d 0d4c 1a3e
00000290: 16c8 043e faa8 93bd ddb5 8bbd 2416 d13d
000002a0: b1f8 973d 379c bcbd f417 b63b 2578 aa3d
000002b0: 3457 293b d576 8c3d f4c1 c2bd d1af e9bc
000002c0: 0158 7bbd 55fb 62bd 6c66 193e ece7 be3d
000002d0: a4a6 ad3c 8514 fc3d 517e ca3c 9184 38bc
000002e0: 3cf0 22bd 4d31 ddbd 313c b1bd 4819 59bd
000002f0: ffb3 dfbd ba74 4c3d 8181 f0bd 4ce6 823d
00000300: a4e5 383d 9a76 c1bd 1c98 10bd 5319 72bd
00000310: ee49 23bd ba9b 633d 44d6 c63d 3445 a53d
00000320: 5fd8 6d3d 0a72 f7bd 6669 ca3d d602 c93d
00000330: cc93 573d f3d1 a5bd 3461 94bd 5732 12bd
00000340: 1318 6dbd 26cd 743d f495 b83d f26f fc3d
00000350: bc82 bb3c c10f ecbc 9486 b73d 98e9 a43d
00000360: 7786 0abd e62f 2bbd 1f42 a5bd 05c9 b6bd
00000370: 9235 e6bd d29d 833d f16e af3d 7f1c 01bd
00000380: cfd8 213d 4c17 c4bd 1db6 2cbd 8e88 91bc
00000390: 9b10 43bc 072b bc3d 094e 01be 9f09 87bd
000003a0: e9ce 12bd 1de6 fe3c 1b5d 7d3b 0e3d 0e3d
000003b0: 8071 94bd 1469 1f3d 880a 85bc 8974 893d
000003c0: cc1b c2bc 9253 f1bd 18da 453d 2955 033e
000003d0: eb11 7f3d 2b32 0dbd f820 c43c 292b 083e
000003e0: 0c17 a33d 4f0c ca3d 8616 813d 8cf3 39bd
000003f0: 3b96 c73d b6ba 7d3d ff88 043e 8c02 b43d
-0.052437123 0.016522134 0.017134415 0.14688765 0.08992396 0.061043646 -0.09046817 -0.0987668
0.08389455 -0.057024095 -0.04001012 0.010204919 -0.017989744 0.06027871 0.09494458 0.03203019
0.045369484 0.0034644802 -0.07341497 0.063148834 0.1509109 -0.023461115 0.14720131 0.08176098
0.057803977 0.09629579 -0.059556447 0.010436305 0.058228377 -0.08267386 -0.039687347 0.031125013
0.13236932 -0.05618735 0.010269389 0.072112426 -0.021853479 -0.05865593 -0.072193876 0.14108296
-0.100244276 0.019841425 -0.06774892 0.07583353 0.044960197 -0.044720706 0.124556296 -0.026032152
0.036491614 0.11596645 0.099130884 0.05256827 0.030227585 -0.011582616 0.0895254 0.055443753
0.10201 0.033277377 0.040776055 0.0511636 0.12380673 0.008276176 -0.010945089 0.10270937
-0.007191822 0.14623214 0.05808295 0.038293604 0.13746363 0.10838275 -0.005866116 0.08523411
0.15580115 0.04314523 0.14957577 0.13345735 0.016719716 0.0490351 -0.07379351 0.07599664
0.022556603 0.03974159 -0.06809573 0.012586494 0.099950135 0.072314166 0.14838633 -0.03713823
0.10867352 -0.08945863 0.053134885 0.1557884 0.072301835 -0.067063086 0.1230388 0.14665629
-0.022130786 -0.038561616 -0.08939067 -0.0919062 0.039130207 -0.017579298 0.06066149 0.053351253
0.025077362 -0.027498743 -0.0010581727 -0.08494318 0.069098346 -0.04951011 -0.046462234 0.02278159
0.0559058 0.16495681 -0.038678866 0.024286272 0.17444398 0.0019483841 0.009241986 0.079623654
-0.023676911 -0.04392572 -0.0022986606 0.13056163 0.032947484 0.045984887 0.029879782 0.010312356
0.049193855 0.113447286 0.13912119 0.042529214 0.12639052 -0.04740247 0.069876276 -0.09495399
-0.039227996 -0.06735964 -0.07610201 0.09555448 0.107337154 -0.008012077 0.024220955 0.12500724
-0.025959259 0.08040121 0.12600915 -0.094415046 0.08794366 -0.07115328 0.06295445 0.005525384
0.096155934 0.18035649 0.16172735 0.095283784 -0.045043897 0.13369916 0.14636849 -0.076698765
0.031635858 0.1332711 0.055564035 0.15068074 0.12966952 -0.07209964 -0.06821797 0.10209301
0.07420481 -0.09209483 0.0055570547 0.08323697 0.002583933 0.06858603 -0.0950965 -0.028526219
-0.061363224 -0.05541547 0.14980477 0.09321579 0.021197625 0.12308601 0.024718435 -0.011262075
-0.039779887 -0.10800419 -0.08654059 -0.053002626 -0.109230034 0.049916007 -0.11743451 0.06391582
0.045140877 -0.094464496 -0.035301313 -0.059106182 -0.039865427 0.055568434 0.09708837 0.0806984
0.058067676 -0.12082298 0.098833844 0.09814994 0.052631184 -0.08096685 -0.072451025 -0.03569254
-0.057884287 0.059765957 0.09012976 0.123260394 0.022889487 -0.028816106 0.089612156 0.08052367
-0.033819642 -0.041793726 -0.08069252 -0.0892506 -0.112406865 0.06426586 0.08566082 -0.031521317
0.039513405 -0.09574756 -0.042165864 -0.01776531 -0.0119058145 0.09187894 -0.12627424 -0.06593632
-0.035841856 0.031115586 0.0038660232 0.034726195 -0.07248211 0.03891857 -0.016240373 0.067116804
-0.023694895 -0.11783518 0.048303694 0.12825455 0.062272947 -0.034471672 0.023941502 0.13297714
0.0796338 0.09865629 0.06303124 -0.04539828 0.09745451 0.06194564 0.12942885 0.08789548

net.2.bias f4 [32]
00000000: b85c d43d 5cef ecba 28cd 023e b230 e6bc
00000010: 6a91 fc3d ac6f 2cbd 5beb 02be 3cff 0e3e
00000020: 7b9b bf3b 882f aa3c 5992 0e3e de2b 913d
00000030: 0193 23bd 6490 223d 97d7 29bb b7cd f53b
00000040: b3c2 7c3d 767c 963d 5a95 9c3c 7d8a b3bd
00000050: 4dfe a3bd b7a7 acbd 6379 543d 5f87 27bc
00000060: ac66 d2bd 474a f2bc 9b5f d1bd 3677 8bbc
00000070: cf7c b73b af2d 94bd eaaa 2bbd 063f 07bc
0.10369247 -0.0018076706 0.12773573 -0.028099392 0.12332423 -0.042098686 -0.12785093 0.13964552
0.005847392 0.020774618 0.13923015 0.07088445 -0.039935116 0.039688483 -0.0025915855 0.0075013298
0.061709117 0.07347958 0.019114185 -0.08766649 -0.080074884 -0.084304266 0.051873576 -0.010225146
-0.10273489 -0.029576434 -0.102233134 -0.017024618 0.005599595 -0.07235276 -0.041911043 -0.008254772

net.4.weight f4 [32, 4, 15]
00000000: 8c33 81bd 7df8 d5bb 51d2 5bbd a199 52bd
00000010: b7b4 b0bb 875f 653d 68c4 32bd 248e 4d3d
00000020: f44a b5bd d40d 103e 5d49 c13d cdd4 113e
00000030: a60c 063e fd12 a43c 4b7f 5bbd 6b69 54bd
00000040: dee7 1bbd ed0d d33d af2d 52bd 3e12 a9bd
00000050: ad78 7fbd f34e 203e 74d5 013e a5b0 193e
00000060: 9a27 193e 693c 853c 73df c23d 40b2 dc3d
00000070: 3b3b 7d3d a4e1 2fbd a975 b4bd a728 41bd
00000080: 53d4 5ebd 8a12 673b 15db 7cbd 65d3 52bd
00000090: b54d 093e 3ba4 233d 735b 46bd 7673 773d
000000a0: 998d babd 3001 98bd b333 bf3d fb97 083e
000000b0: 30e1 e83d e981 9cba 3872 8abd 4593 843d
000000c0: d6bd a23c 727a 293c 6a10 b43c 4638 e5bd
000000d0: 4ef3 a23d 85db e73d c494 16bd 5669 033e
000000e0: c209 d4bd b780 093d 86a7 253a dc8c b1bd
000000f0: 93d3 443d 6f16 ca3d 96ee adbd 3607 4ebd
00000100: 5272 163e f49a 0a3c 3f60 8cbd 0b54 41bd
00000110: 99a3 e93d 2edc 213d 2448 90bc 543b ce3d
00000120: 5c6c 3c3d 9e66 c23d 17fd 9d3c 5288 52bd
00000130: 1c05 1d3d 0463 e63d eb5d 12bd fb34 b13d
00000140: be42 90bb a965 8cbb 9966 94bd 3d20 01bc
00000150: 8fbe a93c e142 b83d ea13 b03c 34ee 1a3e
00000160: b1d9 2f3e 5b24 483c 932b 263e 1bba 113e
00000170: d73e 96bd e5d0 84bc bf91 343c 1ebb 51bc
00000180: 017d da3d dfe2 cb3d 6f31 4e3d d62e ee3c
00000190: a5a4 853d 8558 013e bfdf df3c 0d16 303e
000001a0: 7198 053e 82b8 6bbd 3eb3 cabd 75ad ae3d
000001b0: 25ba 883d d9cf 99bd cffa 8a3c 9783 d73c
000001c0: f444 2f3d 7b70 ffbc b9ca 9e3c f8af a7bc
000001d0: 9dcd 10bd 2cdb 173e 48e3 7e3d 3cac 90bb
000001e0: 567e 8abc c5a6 c83c 9f88 b2bd f41d 30bd
000001f0: a3a1 413d 7243 bc3d 85ac c03d 130e d3bd
00000200: 2dcc a73c ba40 ec3d 6995 b03d f681 a23c
00000210: 16ad 533d 0e98 5d3d 1ec5 fbbd 77f0 d63d
00000220: 9fa5 30bd fec1 9bbd e6ad aebd c4ea 953c
00000230: e922 cfbc ae82 f03c f149 ce3d 88fc aebc
00000240: 0d3e cc3d 2cba 01be 808b acbd 0d37 4dbb
00000250: 9a37 b7bd fad9 b6bd 1351 3b3c 9fe2 dbbb
00000260: b13d c83c 7d8e 72bd 93b3 bebd 9694 9fbd
00000270: 9f3f 953d 9f42 ec3d 3079 96bd 042b 4d3d
00000280: 46c5 ed36 9024 69bd 0664 97bd 0218 07be
00000290: 5025 0e3c 4459 8f3d ced9 c13d 6c05 cc3c
000002a0: 1623 dbbd f929 99bd bc5f b83d ab4f 1ebd
000002b0: b2af 7f3d 1c6a 793d 16ca ab3d a475 bcbd
000002c0: 5683 e63d 244e 313c 0b63 a93b 459c 23bc
000002d0: 93fc b03d d529 ef3d 7459 fd3d f628 403d
000002e0: e93a efbb 2d9e adbd 9127 bcbd fbb8 b6bd
000002f0: 7acd 033e d555 723d a1c2 503d 20d7 e7bc
00000300: 6b1f 303d 3cb6 fe3c 4c98 2f3c 760c ce3d
00000310: 6705 1d3e c1ef e53c 011f 643d 7ef9 c33d
00000320: c783 843b ba8d 233e 0b95 2dbd 8028 293e
00000330: 742a 603d 7727 f73d 8386 b53d 9b2d 8ebd
00000340: 5594 bb3d 1934 323e 3f48 b1bd 88f1 6abd
00000350: e41f 1c3e 82d5 273e baed 0d3e 1cc8 9fbd
00000360: b03f ca3d 3e0d dabc 3bc4 aebd 6cf5 073d
00000370: 4c2b f63d 5239 acbc 0f61 08bd a626 b13d
00000380: 79e6 93bd a07b ab3c a769 5c3d bc9e 5d3c
00000390: f667 da3d 21c2 88bd 9f37 96bc 90e8 963d
000003a0: 6085 4e3c e694 bcbd 1659 9bbc b7a9 5dbd
000003b0: feb0 febd 5fd5 00be 6d9c 073e f071 b3b9
000003c0: 2761 c93d f537 d03b 41aa 11bd 044d 40bd
000003d0: ede8 e4bd 50c5 b43c 06e3 e23d 5353 acbd
000003e0: 9203 d73b 7aef 2bbc 1e9b 28bc f108 c53d
000003f0: 1db7 863c f610 683d cfda b4bc b930 f13d
-0.0630866 -0.0065298663 -0.05366737 -0.051416043 -0.0053926366 0.055999305 -0.04364434 0.050184384
-0.08852187 0.14067775 0.09437821 0.14241333 0.13090762 0.020028586 -0.053588193 -0.051858347
-0.038062923 0.103053905 -0.0513131 -0.082554325 -0.062370945 0.15655117 0.12679082 0.15008791
0.14956513 0.016264157 0.09515276 0.10776186 0.061824065 -0.042939797 -0.088115044 -0.04715791
-0.054401707 0.0035258853 -0.06173237 -0.051471133 0.13408549 0.039951544 -0.048427057 0.060412847
-0.09109039 -0.074221015 0.09336033 0.13339226 0.11371076 -0.0011940572 -0.06760067 0.06473402
0.019865911 0.010344135 0.021980483 -0.11192374 0.07956563 0.11321167 -0.036762968 0.12833151
-0.10353424 0.033570018 0.00063192134 -0.08669445 0.048053335 0.0986756 -0.08492772 -0.050299846
0.14692047 0.008459795 -0.06854295 -0.04719929 0.11408157 0.03951662 -0.017612524 0.1006991
0.046001777 0.09492229 0.019285722 -0.051399536 0.03833495 0.112493545 -0.0357341 0.08652683
-0.0044024875 -0.00428458 -0.072461314 -0.007881221 0.020720748 0.08997131 0.02149387 0.1512993
0.17172886 0.012215699 0.1622756 0.1423115 -0.073362045 -0.01621289 0.011021077 -0.01280096
0.10668374 0.099553816 0.050340112 0.029075067 0.06525544 0.12631424 0.02732837 0.17195912
0.13046433 -0.057549007 -0.09897469 0.08529178 0.06676129 -0.07510347 0.016965298 0.026307864
0.04279037 -0.031181565 0.019383775 -0.02046965 -0.035352338 0.14829701 0.06222847 -0.004415063
-0.016905945 0.024493584 -0.08717465 -0.042997316 0.04727329 0.09192552 0.094079055 -0.10305419
0.0204831 0.11535783 0.08622248 0.01983736 0.05167874 0.05410009 -0.122934565 0.10495084
-0.0431267 -0.076053604 -0.08529262 0.018300422 -0.025285201 0.029359188 0.10072697 -0.02136065
0.09972773 -0.12668675 -0.08425045 -0.003131333 -0.08946152 -0.089282945 0.011432904 -0.006710365
0.02444348 -0.05921792 -0.09311595 -0.077920124 0.072875254 0.115361445 -0.073473334 0.05008985
7.086116e-06 -0.056919634 -0.07392125 -0.13192752 0.008675888 0.06999448 0.09465371 0.02490493
-0.107000515 -0.07478709 0.09002635 -0.038650196 0.062423415 0.06089221 0.08388154 -0.09202126
0.11255519 0.010821853 0.0051692775 -0.009985988 0.08641925 0.11677901 0.123705775 0.046914063
-0.007300724 -0.08477435 -0.09187234 -0.08922001 0.12871352 0.059163887 0.050966863 -0.028300822
0.042998713 0.031092755 0.010717463 0.100609705 0.15334092 0.028068425 0.05569363 0.09569071
0.0040440294 0.15972033 -0.042378467 0.16519356 0.054727986 0.12068074 0.08863547 -0.06942292
0.091591515 0.17402686 -0.08656358 -0.05735925 0.1524654 0.1639004 0.13860217 -0.0780184
0.09875429 -0.026617642 -0.08533522 0.033193037 0.12019977 -0.021023426 -0.033295687 0.0864995
-0.072216935 0.020932972 0.053811695 0.013526615 0.1066436 -0.06677652 -0.01833707 0.073685765
0.012605041 -0.092080876 -0.018963378 -0.05411693 -0.12436102 -0.12581395 0.13243265 -0.0003422643
0.098329835 0.006354327 -0.035562757 -0.046948448 -0.111772396 0.022066742 0.110784575 -0.0841433
0.006561705 -0.010494107 -0.010290889 0.09620846 0.016444737 0.0566568 -0.022076992 0.11776871

net.4.bias f4 [32]
00000000: 7feb 88bc a31d e53b 2c62 4abc 4ff0 123e
00000010: d777 d63d 4927 c93d fbff 88bd c807 ccbd
00000020: aaf6 0d3e 0ec4 3c3d a7fc a43d 9211 143e
00000030: fe72 1cbd a087 113d 885e 3bbd 7bca 013d
00000040: 69de a43d f730 a53d c9ed f6bd 4cfb d7bd
00000050: cf42 0a3e 0aa6 973d 94ec adbd 5659 bf3d
00000060: a1f6 1c3e 5b13 483d 1e9c ddbd ab67 a73d
00000070: a3bb 90bd 6552 833d 6faf debd 9d6e ea3c
-0.016713856 0.0069920584 -0.012352508 0.14349483 0.104720764 0.09821946 -0.066894494 -0.09962422
0.13863626 0.04608541 0.08056002 0.14459828 -0.038195603 0.035529733 -0.04574445 0.03168724
0.08050234 0.0806598 -0.12057073 -0.10545978 0.13502048 0.07404716 -0.08492389 0.09343211
0.15328456 0.048846584 -0.108207926 0.0817407 -0.07067039 0.064122 -0.10873305 0.028617198

net.6.weight f4 [1, 32, 15]
00000000: fd7d b3bc 4764 633b 36e0 3bbd db95 fd3b
00000010: 61aa 38bd 21f5 c2bc 9f37 56bc 5fb4 80bd
00000020: db7d 97bd 4fb1 a3bd 8438 9cbd 4d5a cbbc
00000030: cc26 863b 04b6 57bd a177 23bd 540d b0bd
00000040: 2649 b9bd d52d b4bd 62d6 5bbd 84a9 61bd
00000050: af13 abbd a743 95bd bb36 02bd 544b 81bc
00000060: 88b7 b7bd d3a2 26bd d663 6cbd 1b6f bcbc
00000070: a438 8bbd 0fa3 51bd fbb2 45bc 0548 573d
00000080: b8a2 6d3d dbf7 8d3d 0279 e83b 1c85 f23c
00000090: ea06 843d 5e32 2b3c 3a67 2abc 2f3a acbb
000000a0: 678c 61bc ff11 353d 99fa 6d3d 442a fd3c
000000b0: 951e d93c f0bd 77bd 7256 683c daaa 29bd
000000c0: 4ec2 24bd 772e 9cbc fbdf 53bc f9e8 4bbb
000000d0: bfff 4ebd 54d1 a6bc 39db 65bd ee2c 023c
000000e0: 0101 6cbd 5665 50bd 1eff a2bd 9b5d 7dbd
000000f0: b708 96bc c42d 9abd 2c47 aebd 7395 43bd
00000100: 0db0 34bd 4c15 08bc dabc 80bc 5370 3bba
00000110: 20d0 983c 92c9 95bc 5220 ab3c be86 f53c
00000120: 5b10 8c3c d421 50bd 5267 81bd 681b d9bc
00000130: 0a07 2fbd 5c84 a1bd 586e 0fbd 05bb b6bc
00000140: 6179 4abd 146b afbd 1301 adbd 07b0 20bd
00000150: 3980 f2bc 9230 7dbd 670c 0b3b cd73 7f3b
00000160: 84c6 e63c 23e3 4bbd 9c8e 30bd 45ee 0b3d
00000170: 6bc4 e83c ad28 51bc 8bf7 113d 2dab f53c
00000180: 2658 21bd c011 bb3b cdd6 0ebc 7bec 5d3c
00000190: 263f a13c f59a 323c b98a de3b b611 2a3c
000001a0: 9926 8cbc 4b03 b9ba 6ade 9cbc ee98 023d
000001b0: 575b d3bc 4a1e debc b682 35bc aad3 203d
000001c0: 33c8 24bb a66e 0fbd d5ee 84bc 2e62 0e3c
000001d0: 3e8e 02bc b4d2 55bc 7efe aabc 39a9 2b3d
000001e0: f30d 8abd 17d3 aa3b d972 82bc 914c 90bd
000001f0: b884 28bd b300 86bc a2d6 a8bd f8da 43bd
00000200: 21d3 a3bd 70d5 76bd 7812 093c 4c7f 98bd
00000210: c691 6abd 210c eebc 7a6d 53bd 96f0 003d
00000220: 0c2c cebb 61ad a63a 2a9d a13c 8dff 2abd
00000230: ede8 153c bf3e a1bc c8d6 91bd 3e11 b43b
00000240: 9e2c 63bd 7474 663b e474 99bd a750 29bd
00000250: e95d 4ebd 0ab6 97bd 775d 8abd cf14 1ebd
00000260: 75b4 14bd 7b5a 17bd 3e45 9cbd d320 63bd
00000270: efaf 7e3c 8d50 18bc 65cd 86bb d135 90bd
00000280: 8b14 6dbd f7e2 993b cb48 1abd 7300 86bd
00000290: 705f cfbc b5ee 533c 4c71 8ebd fda0 86bd
000002a0: 10c7 5f3b bed6 333c 5355 dcbc 4eed 53bd
000002b0: 40e2 063c 39c5 e6bc 7e78 d2bc 4a29 91bd
000002c0: 12b8 28bd 3f5a 62bc 0764 8ebd 7db9 81bc
000002d0: 7b12 183d 219a 993a 23e8 e53b 69b7 a4bc
000002e0: 3603 7abc 84d9 7bbd 52c3 2fbd b02c 81bd
000002f0: ea69 d0bc cc25 cbbc e41e 62bd a577 b5bd
00000300: 3154 8ebd 7911 ecbc e829 d3bd d19c 87bc
00000310: 3652 45bd 1c94 a23c 6fb1 9b3b e791 f13c
00000320: 36c4 4f3c da0e d43c 447b 45bd 0786 3f3b
00000330: 5d30 9fbd 1c02 dbbb e573 96bd 1667 94bd
00000340: e54b 3cbd 3530 57bd dd05 eb3c 750d 04bd
00000350: 556c bc3c d457 9abc fa45 60bb 47c1 50bc
00000360: 4760 803c bc9b dbbb a526 73bd f854 a7bc
00000370: 98b2 81bd 0e4d 8dbc 044e c4bd ab06 d3bd
00000380: 7ff2 b2bd 821b 34bd 8181 63bd 12be 8ebd
00000390: 482d 45bd c17e b0bd 5361 7ebd 5228 42bd
000003a0: bf73 01bd c0f5 aabc 343d 67bd c2c4 67bc
000003b0: f5d4 9bbd 67d2 83bd 66d7 fbbc d974 6abc
000003c0: 8a6d 17bd 1fb4 4f3c 9df5 95bd 77bb 943c
000003d0: 4b20 7f3c 99a0 3bbd a609 33bc 103b 723b
000003e0: 1498 2fbd 324c 89bd dbb2 18bd eb85 7ebd
000003f0: f7bf e73a 22ce 86bd b684 323a b427 a0bd
-0.021910662 0.003469722 -0.04586812 0.0077388114 -0.04508436 -0.023798527 -0.013074785 -0.06284403
-0.07397052 -0.07992803 -0.07627967 -0.024823332 0.0040939804 -0.052663818 -0.03990901 -0.08596292
-0.09047155 -0.08797804 -0.05367125 -0.055093303 -0.08353364 -0.07288294 -0.031790476 -0.01578299
-0.08970553 -0.040682625 -0.0577124 -0.023002198 -0.06797913 -0.051180895 -0.012066598 0.052558918
0.05801651 0.0693204 0.0070945034 0.029604487 0.06446631 0.01044902 -0.010400588 -0.0052559595
-0.013766385 0.044206616 0.058100317 0.030903943 0.02650384 -0.060483873 0.014180766 -0.041422702
-0.040224366 -0.019065125 -0.012931819 -0.0031114204 -0.050536867 -0.020363487 -0.05611727 0.007945282
-0.057618145 -0.05087789 -0.07958816 -0.061856847 -0.018314702 -0.0752826 -0.08509669 -0.047749948
-0.044113208 -0.008305859 -0.015715051 -0.00071502215 0.01865393 -0.018284593 0.020889435 0.029971477
0.017097643 -0.05081351 -0.06318535 -0.026502326 -0.042731322 -0.07886574 -0.03501734 -0.022305975
-0.049432162 -0.085653454 -0.084474705 -0.039230373 -0.029602157 -0.0618139 0.002121711 0.0038978935
0.028170832 -0.04977716 -0.043104753 0.03416278 0.028413972 -0.0127660455 0.035636466 0.02998885
-0.039390706 0.005708903 -0.008718205 0.013545151 0.019683432 0.010901202 0.0067914394 0.010380199
-0.017108249 -0.0014115361 -0.019149024 0.031884126 -0.02580039 -0.027114052 -0.011078527 0.03926436
-0.0025143742 -0.035017632 -0.016227165 0.0086904 -0.0079684835 -0.013050724 -0.020873304 0.04190943
-0.06740942 0.005213152 -0.015923904 -0.07045854 -0.041142195 -0.016357755 -0.08244063 -0.047816247
-0.07999254 -0.060262144 0.00836622 -0.07446155 -0.057267927 -0.029058518 -0.051618077 0.03147944
-0.006291872 0.0012716466 0.019728262 -0.04174762 0.009149772 -0.01968324 -0.071210444 0.0054952195
-0.055462472 0.0035164626 -0.07492998 -0.04133668 -0.05038253 -0.07407768 -0.06756108 -0.038594063
-0.03630491 -0.036951523 -0.076303944 -0.055451225 0.0155448755 -0.009296549 -0.0041138404 -0.07041515
-0.05788092 0.004696246 -0.037667077 -0.065430544 -0.025314063 0.01293533 -0.069552034 -0.06573675
0.003414575 0.0109764915 -0.026896155 -0.051739983 0.008232653 -0.028170215 -0.02569222 -0.070879534
-0.041191168 -0.013815462 -0.069526725 -0.015835518 0.037127 0.0011718908 0.0070161982 -0.020106988
-0.015259555 -0.061486736 -0.04291088 -0.063073516 -0.025441129 -0.024798296 -0.05520524 -0.08860711
-0.06949652 -0.028816925 -0.10310727 -0.016554268 -0.048174106 0.019846015 0.0047513763 0.029488517
0.012681058 0.025885988 -0.04821326 0.0029224174 -0.077728964 -0.006683601 -0.07346324 -0.072462246
-0.045970816 -0.05253621 0.02868932 -0.032239396 0.023000875 -0.018840708 -0.0034221397 -0.012741393
0.015670909 -0.0067019146 -0.059363026 -0.020426258 -0.06332892 -0.017248657 -0.09585193 -0.10304006
-0.08737659 -0.043971546 -0.055543426 -0.06969847 -0.048138887 -0.086179264 -0.062104534 -0.047401734
-0.031604525 -0.020869136 -0.056454852 -0.014146032 -0.07608978 -0.064366154 -0.030742358 -0.014310085
-0.0369697 0.012677222 -0.07322238 0.018155796 0.015571664 -0.045807455 -0.010927593 0.0036961474
-0.042869642 -0.06703986 -0.037279945 -0.062139433 0.0017681111 -0.065822855 0.00068099366 -0.07820073
