backend/app/working_model/moth_epoch1.ckpt (torch, 22277 bytes, 7 tensors)

net.0.weight f4 [16, 1, 15]
-0.28677088 -0.1780213 0.037883665 -0.07507332 0.20141914 -0.004965944 0.0022014002 -0.0713255
0.1712357 -0.1791627 0.11987716 -0.13880436 0.04167756 0.11776865 0.10002016 -0.054956086
-0.08955409 -0.008158144 -0.090515144 0.13739802 -0.058479335 -0.25306836 -0.2989124 -0.14067663
-0.09448102 -0.118921734 0.07999504 -0.086916536 -0.05551686 -0.17359312 -0.246098 0.1816787
-0.13721003 0.11037586 -0.0413247 -0.009603475 0.22665378 0.013264439 -0.26210964 -0.2900118
-0.22191077 -0.1459418 0.11450077 0.003038734 -0.2691298 0.19668429 0.1387276 -0.08319909
-0.15055071 0.124164924 0.06590441 0.2643435 0.26194888 -0.18693693 0.24593063 0.23081037
-0.21176173 0.27987677 -0.009560397 -0.13015796 0.04558176 -0.19598486 0.21554184 -0.19155547
0.0093643665 -0.2350662 0.015202084 -0.13517652 0.021393077 -0.07741467 0.18924943 0.17677936
0.17039819 0.26713046 0.20520675 0.18869379 -0.17441449 -0.25645256 -0.12932518 0.06307933
-0.022222394 -0.2399824 -0.20414348 0.10711496 -0.28075 -0.09610498 -0.085136324 0.0031096335
-0.09980707 0.020088732 0.14327143 -0.09944356 0.006954295 -0.12056266 -0.14108557 0.120703936
-0.013000245 -0.071665406 -0.06653933 -0.19347179 0.08839798 0.16319537 0.08850752 -0.013277538
-0.049028195 -0.19776843 -0.11101204 -0.06193248 0.1229299 -0.22589195 -0.25781152 -0.07714281
0.061746012 -0.08070019 -0.13521872 -0.03893902 0.02045538 -0.024358884 0.07350667 0.24904025
0.22672223 0.15299378 0.21855147 0.29632732 -0.2409067 -0.115670405 -0.08461293 -0.050873082
-0.14107837 -0.12793204 0.09410846 0.039442535 0.07204971 -0.21200778 -0.19328259 -0.19051205
-0.13735321 -0.11821504 -0.30810636 -0.2642389 -0.27709824 -0.17103976 0.20230396 -0.0034469883
-0.07520093 -0.090870544 -0.16272199 0.022100247 -0.2290936 0.104016416 -0.04146603 0.17578581
-0.022452358 0.055824474 -0.08747608 0.21618392 0.042554423 0.052793346 -0.21095783 -0.17926253
-0.18981814 0.0037921765 -0.17189257 0.19951116 0.036928456 0.15460357 -0.20703307 -0.03916324
0.21943219 -0.057815194 0.06355464 0.26531577 -0.050187293 0.1341731 -0.1050117 -0.16240312
0.15913674 0.16081837 -0.1592871 -0.12947586 0.28099886 -0.098022275 0.07614931 0.092122465
0.1968694 0.0616323 0.2853366 0.25026917 0.24813949 0.027744412 0.078659244 -0.08526794
0.23305336 0.05589526 0.11826259 -0.16380903 -0.18869145 0.034554936 -0.25118938 0.23599885
0.024920993 0.223734 -0.09490265 -0.04883921 0.23112342 -0.023858463 -0.07775879 -0.07770339
0.09171084 0.25915226 0.28953275 0.29794014 -0.028419372 0.2744079 0.13631344 -0.06353483
0.21920781 0.27230108 -0.07072686 -0.14275737 0.06559508 -0.04128961 -0.14964065 0.062705584
0.040060546 0.11510622 -0.17250326 -0.21131553 -0.04337992 0.24663682 -0.012031974 0.2355364
-0.0005544229 0.25674397 0.059210155 -0.16608742 -0.20697378 -0.15454295 -0.23407322 -0.19559108
00000000: a2d3 92be 374b 36be e72b 1b3d 0ac0 99bd
00000010: d240 4e3e 5cb9 a2bb 5e45 103b 1b13 92bd
00000020: 6958 2f3e 6d76 37be 2882 f53d bb22 0ebe
00000030: 17b6 2a3d b130 f13d 5fd7 cc3d a219 61bd
00000040: 2268 b7bd bca9 05bc 0160 b9bd 11b2 0c3e
00000050: 0788 6fbd 2d92 81be 0c0b 99be 890d 10be
00000060: 447f c1bd 3d8d f3bd 71d4 a33d 4c01 b2bd
00000070: a665 63bd 65c2 31be 1d01 7cbe fb09 3a3e
00000080: c980 0cbe bd0c e23d 1744 29bd e557 1dbc
00000090: ee17 683e 1753 593c 3c33 86be 6d7c 94be
000000a0: 943c 63be c471 15be 617f ea3d 7f25 473b
000000b0: 62cb 89be 9b67 493e 9c0e 0e3e 4964 aabd
000000c0: f729 1abe 2e4a fe3d e4f8 863d 0858 873e
000000d0: 2a1e 863e 656c 3fbe 3dd5 7b3e 8e59 6c3e
000000e0: 11d8 58be 024c 8f3e 36a3 1cbc 2148 05be
000000f0: f1b3 3a3d 41b0 48be 00b7 5c3e 1e27 44be
00000100: 006d 193c 32b5 70be 2912 793c b76b 0abe
00000110: 8940 af3c 958b 9ebd 9aca 413e a605 353e
00000120: dd7c 2e3e 53c5 883e b821 523e f238 413e
00000130: b699 32be c04d 83be d26d 04be bc2f 813d
00000140: bd0b b6bc f2bd 75be fd0a 51be 175f db3d
00000150: 77be 8fbe b0d2 c4bd f45b aebd feca 4b3b
00000160: a667 ccbd 2091 a43c bfb5 123e 11a9 cbbd
00000170: dbe0 e33b 8ee9 f6bd bc78 10be a033 f73d
00000180: fbfe 54bc 50c5 92bd c645 88bd 781d 46be
00000190: 000a b53d b01c 273e 6e43 b53d 088a 59bc
000001a0: cad1 48bd cf83 4abe 485a e3bd eaac 7dbd
000001b0: acc2 fb3d 3850 67be dfff 83be 0dfd 9dbd
000001c0: 63e9 7c3d 2446 a5bd c776 0abe 867e 1fbd
000001d0: 0b92 a73c 488c c7bc aa8a 963d 6804 7f3e
000001e0: df29 683e 67aa 1c3e f5cb 5f3e 37b8 973e
000001f0: 3fb0 76be 9be4 ecbd 8b49 adbd 4b60 50bd
00000200: d976 10be 9e00 03be f0bb c03d 7f8e 213d
00000210: cc8e 933d 9118 59be dfeb 45be 9715 43be
00000220: 52a6 0cbe ba1a f2bd 1ec0 9dbe 524a 87be
00000230: d2df 8dbe 0c25 2fbe c528 4f3e dee6 61bb
00000240: f202 9abd 561a babd 98a0 26be 940b b53c
00000250: 8397 6abe 8f06 d53d 49d8 29bd 3201 343e
00000260: 02ee b7bc 34a8 643d a926 b3bd 515f 5d3e
00000270: 8c4d 2e3d d63d 583d 5405 58be 9990 37be
00000280: b05f 42be 2a86 783b 9b04 30be a74c 4c3e
00000290: 4b42 173d 6650 1e3e 7a00 54be a269 20bd
000002a0: d5b2 603e a0cf 6cbd ef28 823d 78d7 873e
000002b0: 3191 4dbd ac64 093e 6010 d7bd 014d 26be
000002c0: bef4 223e 92ad 243e 281c 23be 5295 04be
000002d0: 15df 8f3e e7bf c8bd 2bf4 9b3d b4aa bc3d
000002e0: 2298 493e 2772 7c3d a417 923e 4823 803e
000002f0: 4718 7e3e 4048 e33c 1918 a13d f5a0 aebd
00000300: 8aa5 6e3e 6ef2 643d a833 f23d 8ebd 27be
00000310: 5538 41be 7a89 0d3d e59b 80be afa9 713e
00000320: 1c27 cc3c 871a 653e 525c c2bd a00b 48bd
00000330: 9eab 6c3e d372 c3bc 0040 9fbd f422 9fbd
00000340: e5d2 bb3d 9baf 843e a33d 943e 9c8b 983e
00000350: becf e8bc 317f 8c3e c095 0b3e 8d1e 82bd
00000360: 0378 603e 0c6b 8b3e 3ed9 90bd fd2e 12be
00000370: b756 863d 4b1f 29bd 663b 19be c96b 803d
00000380: 8716 243d cfbc eb3d b2a4 30be 1963 58be
00000390: 25af 31bd 5d8e 7c3e c221 45bc 7430 713e
000003a0: b156 11ba f273 833e 5986 723d d212 2abe
000003b0: eff0 53be 8240 1ebe e4b0 6fbe 0749 48be

net.0.bias f4 [16]
0.2779277 -0.16401966 0.13258483 0.2599716 0.26197234 0.12618785 -0.017290995 0.13246477
0.27055338 0.175289 0.123044446 -0.0059204255 -0.037768286 0.01482109 0.069130644 -0.020612307
00000000: 8a4c 8e3e c5f4 27be 51c4 073e ff1a 853e
00000010: 3d21 863e 6337 013e d8a5 8dbc d8a4 073e
00000020: f985 8a3e f67e 333e bafe fb3d 2100 c2bb
00000030: ebb2 1abd 28d4 723c 5e94 8d3d 24db a8bc

net.2.weight f4 [32, 4, 15]
-0.05260912 0.016351623 0.016965887 0.14672136 0.08975991 0.060881495 -0.09062891 -0.098926485
0.083736904 -0.057179887 -0.04016429 0.010052436 -0.018140847 0.060128752 0.09479524 0.031914428
0.045262165 0.003366901 -0.07350668 0.06305692 0.15081729 -0.023563735 0.1470801 0.0816104
0.057610746 0.09604798 -0.059865743 0.0100668045 0.05780349 -0.08315019 -0.039809756 0.031002518
0.13224581 -0.05631246 0.010142194 0.07198255 -0.021987256 -0.05879515 -0.07233801 0.14093432
-0.10039747 0.019684037 -0.06791021 0.07566937 0.044793565 -0.044925388 0.124349184 -0.026241029
0.036281634 0.11575521 0.09891903 0.052357126 0.03001822 -0.011788205 0.089323804 0.055246405
0.101817526 0.033089597 0.040592097 0.05098305 0.123695314 0.00816565 -0.01105456 0.10260103
-0.0072990474 0.14612584 0.05797764 0.038189046 0.13736045 0.10828095 -0.005966894 0.085134275
0.15570202 0.043046664 0.14947768 0.13339765 0.016668972 0.04898947 -0.073837794 0.07594922
0.022501681 0.03967432 -0.06817992 0.0124805225 0.099815674 0.072143875 0.14817773 -0.03738262
0.10839644 -0.08976619 0.053055365 0.15570867 0.072220996 -0.067145295 0.12295471 0.14656997
-0.022219738 -0.038653787 -0.08948565 -0.09200377 0.039029904 -0.017682115 0.06055617 0.053243652
0.024967693 -0.02763219 -0.00119302 -0.08507912 0.06896167 -0.049647152 -0.04659928 0.022645148
0.055770446 0.16482338 -0.038809754 0.024157807 0.17431812 0.0018252153 0.009121228 0.079505555
-0.023756282 -0.04400457 -0.0023769292 0.13048388 0.032870393 0.045908358 0.029803807 0.01023692
0.049119465 0.11337399 0.13904883 0.04245764 0.12631956 -0.047472842 0.06980625 -0.095030166
-0.03929346 -0.06741609 -0.07615211 0.095506445 0.10728722 -0.008068233 0.024153717 0.124924436
-0.026060943 0.08027876 0.12586513 -0.09458091 0.08775593 -0.07136227 0.062895246 0.0054661715
0.0960964 0.18029636 0.16166636 0.09522167 -0.045107584 0.13363373 0.14630188 -0.07676653
0.031566586 0.13320045 0.055492 0.1506075 0.1295948 -0.07219185 -0.06831109 0.10199913
0.074110314 -0.09218981 0.005461918 0.08314197 0.0024892644 0.06849257 -0.09518862 -0.028616805
-0.06145225 -0.055503014 0.14971878 0.09313153 0.021200433 0.123089 0.024721576 -0.011258948
-0.03977674 -0.10800105 -0.08653741 -0.052999318 -0.10922668 0.0499197 -0.117430806 0.0639194
0.045144424 -0.09446115 -0.035298 -0.05910209 -0.03986082 0.055573598 0.09709351 0.080702856
0.058071144 -0.12082022 0.09883637 0.09815223 0.05263342 -0.0809651 -0.07244948 -0.035690986
-0.057882775 0.059767384 0.09013324 0.12326376 0.022892851 -0.028812781 0.089615226 0.08052659
-0.033816684 -0.04179075 -0.08068931 -0.08924733 -0.112403706 0.064268894 0.0856637 -0.031518515
0.03951602 -0.095745966 -0.042164344 -0.017763784 -0.011904206 0.091880575 -0.12627238 -0.06593413
-0.035839636 0.031118117 0.0038686104 0.034728885 -0.07247936 0.03892141 -0.016237216 0.06712007
-0.024079522 -0.118219234 0.047922935 0.12787765 0.061900694 -0.034838375 0.023579378 0.13262072
0.079287425 0.098317906 0.06270482 -0.045716986 0.097141325 0.061635517 0.12911761 0.087776676
00000000: a97c 57bd d7f3 853c 0bfc 8a3c 203e 163e
00000010: 0bd4 b73d e05e 793d a69b b9bd f899 cabd
00000020: 417e ab3d 7535 6abd 5083 24bd f9b2 243c
00000030: 1d9c 94bc 9149 763d 0224 c23d b4b8 023d
00000040: d264 393d 3aa7 5c3b ac8a 96bd fd23 813d
00000050: d96f 1a3e bc08 c1bc 2a9c 163e 5a23 a73d
00000060: 3ff9 6b3d ceb4 c43d c835 75bd 3def 243c
00000070: 5ac3 6c3d a64a aabd 8e0f 23bd fef8 fd3c
00000080: 726b 073e e5a7 66bd 722b 263c 966b 933d
00000090: 9e1e b4bc 2fd3 70bd f325 94bd 1651 103e
000000a0: 309d cdbd 6b40 a13c 8214 8bbd 8bf8 9a3d
000000b0: 7579 373d af03 38bd c9aa fe3d 6df7 d6bc
000000c0: 0d9c 143d 1111 ed3d 0f96 ca3d 6d74 563d
000000d0: c5e8 f53c 5123 41bc 66ef b63d 0e4a 623d
000000e0: b585 d03d f588 073d e643 263d 9ad3 503d
000000f0: f853 fd3d 38c9 053c 2f1e 35bc 7d20 d23d
00000100: d92c efbb 03a2 153e f679 6d3d 1e6c 1c3d
00000110: 38a8 0c3e 67c2 dd3d ef85 c3bb e15a ae3d
00000120: 5a70 1f3e b351 303d ad10 193e 6599 083e
00000130: 5e8d 883c 2fa9 483d 4538 97bd 448b 9b3d
00000140: 7255 b83c 8a81 223d eaa1 8bbd 1b7b 4c3c
00000150: 296c cc3d 2bc0 933d e7bb 173e 851e 19bd
00000160: f4fe dd3d 56d7 b7bd 9550 593d 1872 1f3e
00000170: 9ae8 933d 7983 89bd aecf fb3d 7016 163e
00000180: 2b06 b6bc 6f53 1ebd 4144 b7bd 796c bcbd
00000190: d2dd 1f3d 15da 90bc bf09 783d 0416 5a3d
000001a0: 0c89 cc3c e75c e2bc 1c5f 9cba f63d aebd
000001b0: c73b 8d3d d05a 4bbd e3de 3ebd 5182 b93c
000001c0: 8d6f 643d 76c7 283e faf6 1ebd 98e6 c53c
000001d0: 7380 323e 103c ef3a 3471 153c cfd3 a23d
000001e0: 899c c2bc 233e 34bd 41c6 1bbb 919d 053e
000001f0: 1ba3 063d 670a 3c3d 1d27 f43c c1b8 273c
00000200: 7e31 493d 9f30 e83d d162 0e3e 10e8 2d3d
00000210: ea59 013e e272 42bd 94f6 8e3d 2d9f c2bd
00000220: 2ef2 20bd 7211 8abd a3f5 9bbd e298 c33d
00000230: 67b9 db3d 9f30 04bc 04de c53c 62d8 ff3d
00000240: c27d d5bc 3169 a43d cae2 003e a3b3 c1bd
00000250: 62b9 b33d 6226 92bd 39cf 803d 921d b33b
00000260: 30ce c43d 9c9f 383e de8b 253e 9403 c33d
00000270: bbc2 38bd 48d7 083e 29d0 153e c537 9dbd
00000280: f74b 013d b365 083e 944b 633d da38 1a3e
00000290: 80b4 043e 52d9 93bd afe6 8bbd ebe4 d03d
000002a0: 26c7 973d 03ce bcbd e4f9 b23b 5646 aa3d
000002b0: ed22 233b d545 8c3d 40f2 c2bd ca6d eabc
000002c0: 5bb5 7bbd 2157 63bd e14f 193e bebb be3d
000002d0: 88ac ad3c 1616 fc3d e784 ca3c 7377 38bc
000002e0: efec 22bd a82f ddbd 873a b1bd d015 59bd
000002f0: 3db2 dfbd 9978 4c3d 907f f0bd 2de8 823d
00000300: 5ce9 383d d974 c1bd a394 10bd 0815 72bd
00000310: 1945 23bd 24a1 633d f6d8 c63d 8a47 a53d
00000320: 02dc 6d3d 9770 f7bd b96a ca3d 0904 c93d
00000330: 2496 573d 08d1 a5bd 6560 94bd b630 12bd
00000340: 7d16 6dbd a5ce 743d c797 b83d b671 fc3d
00000350: ca89 bb3c c808 ecbc 3088 b73d 20eb a43d
00000360: 5d83 0abd c72c 2bbd 7040 a5bd 4ec7 b6bd
00000370: ea33 e6bd 699f 833d 7370 af3d 8f19 01bd
00000380: 8ddb 213d 7616 c4bd 85b4 2cbd 5b85 91bc
00000390: dc09 43bc e22b bc3d 8c4d 01be 7908 87bd
000003a0: 95cc 12bd 6ceb fe3c 8388 7d3b e03f 0e3d
000003b0: 0f70 94bd 0e6c 1f3d e903 85bc 3f76 893d
000003c0: 6b42 c5bc ed1c f2bd d74a 443d 5cf2 023e
000003d0: 958b 7d3d afb2 0ebd 8a29 c13c bacd 073e
000003e0: 7261 a23d e65a c93d 626b 803d bc41 3bbd
000003f0: 08f2 c63d 8675 7c3d 6837 043e 42c4 b33d

net.2.bias f4 [32]
0.10353361 -0.0019113155 0.12766218 -0.028096436 0.122976296 -0.042191837 -0.12785093 0.13940454
0.0058230856 0.020659417 0.13906218 0.070695594 -0.04003285 0.03960144 -0.0026803766 0.007228888
0.061550986 0.07320641 0.019143619 -0.08836511 -0.08010399 -0.08481061 0.05186711 -0.010378911
-0.102722965 -0.030225687 -0.10223305 -0.017015535 0.004840374 -0.072348654 -0.04190714 -0.01076213
00000000: 6e09 d43d 1b85 faba e0b9 023e 7f2a e6bc
00000010: ffda fb3d 59d1 2cbd 5beb 02be 10c0 0e3e
00000020: 95cf be3b f03d a93c 5166 0e3e dac8 903d
00000030: 7cf9 23bd 1f35 223d 42a9 2fbb 4fe0 ec3b
00000040: e31c 7c3d 3eed 953d 14d3 9c3c c4f8 b4bd
00000050: 900d a4bd 2fb1 adbd 9b72 543d 4f0c 2abc
00000060: 6b60 d2bd dc9b f7bc 905f d1bd 2a64 8bbc
00000070: 009c 9e3b 882b 94bd d2a6 2bbd a553 30bc

net.4.weight f4 [32, 4, 15]
-0.063651726 -0.007098372 -0.05423822 -0.051988337 -0.00596498 0.055427317 -0.04421496 0.049616307
-0.08908707 0.14011653 0.09382039 0.14186057 0.13035993 0.019488715 -0.054120958 -0.052336324
-0.038537182 0.10258461 -0.051777698 -0.083013505 -0.062824324 0.15610434 0.12634999 0.14965299
0.1491358 0.015838094 0.094728895 0.10734006 0.061403777 -0.043359935 -0.0885042 -0.047545504
-0.054787632 0.0031410428 -0.062117074 -0.051855654 0.13370113 0.03956636 -0.048813745 0.060024094
-0.0914817 -0.07461549 0.09296296 0.1329932 0.11330807 -0.0012021628 -0.067606956 0.06472929
0.019862121 0.010340778 0.021977255 -0.11192697 0.07956229 0.11320817 -0.036766697 0.12832746
-0.103538424 0.033564374 0.00062645634 -0.0867017 0.047940895 0.09856241 -0.08504151 -0.05041413
0.14680578 0.008344768 -0.06865819 -0.047314417 0.11396741 0.039403725 -0.017723873 0.10058922
0.04589348 0.09481584 0.019181106 -0.051493894 0.03824095 0.11240009 -0.03582669 0.086435236
-0.0044929655 -0.00437388 -0.07254921 -0.007967287 0.020636607 0.08988906 0.021413296 0.15122032
0.17165129 0.012139277 0.16219999 0.14223649 -0.073436566 -0.016286783 0.010947764 -0.012873719
0.106611505 0.099482045 0.050268974 0.02900471 0.06518576 0.12624508 0.02725943 0.17189035
0.13039587 -0.05755558 -0.09898047 0.08528661 0.06675664 -0.07510774 0.016961232 0.026303856
0.04278631 -0.031185646 0.019379731 -0.020473648 -0.035356335 0.14829305 0.062224414 -0.0044192052
-0.016894732 0.02450473 -0.08716359 -0.042986292 0.04728396 0.09193585 0.09408904 -0.10304476
0.020492308 0.1153666 0.086230606 0.019843828 0.051684342 0.054104514 -0.12293147 0.104961805
-0.043115843 -0.076042764 -0.08528186 0.018310893 -0.025275 0.029368905 0.10073605 -0.021352075
0.09973567 -0.12668018 -0.08424511 -0.0031265935 -0.0894577 -0.08927951 0.011442765 -0.0067004967
0.0244533 -0.05920821 -0.09310651 -0.07791101 0.07288402 0.11536983 -0.07346545 0.050097678
1.407589e-05 -0.056913916 -0.07391598 -0.13192324 0.008679657 0.06999613 0.09465499 0.024905818
-0.10699994 -0.074786656 0.09002685 -0.038649578 0.062424354 0.060892645 0.083881736 -0.09202061
0.112556204 0.010822611 0.0051700235 -0.009985411 0.086271174 0.116630614 0.12355706 0.04676488
-0.007450203 -0.08492376 -0.09202132 -0.089368574 0.12856688 0.05901924 0.05082408 -0.028441506
0.042860072 0.030956313 0.010582475 0.1004898 0.15322249 0.027951356 0.055578027 0.095576674
0.0039315815 0.15960923 -0.04248828 0.16508555 0.054621585 0.12057575 0.08853165 -0.06952571
0.09148961 0.17392558 -0.08665904 -0.057454087 0.15237114 0.16380669 0.13850887 -0.07811167
0.09866108 -0.026710737 -0.0854278 0.033100612 0.12010723 -0.021116182 -0.033388395 0.086406685
-0.07231041 0.020927284 0.053806785 0.01352233 0.106639765 -0.066780165 -0.018340748 0.073682
0.012601026 -0.09208443 -0.018966585 -0.05412029 -0.124364644 -0.12581798 0.1324283 -0.00034731545
0.097886786 0.0059071523 -0.036012843 -0.047400113 -0.11222523 0.02161337 0.11033346 -0.08458826
0.0061247563 -0.010923158 -0.010714896 0.09579328 0.016039597 0.056264542 -0.022455534 0.11735212
00000000: d65b 82bd 7699 e8bb e528 5ebd b9f1 54bd
00000010: e175 c3bb c107 633d bf1a 35bd 783a 4b3d
00000020: 4873 b6bd b57a 0f3e e824 c03d e643 113e
00000030: 137d 053e cca6 9f3c f0ad 5dbd 9d5e 56bd
00000040: 2ad9 1dbd e117 d23d da14 54bd fc02 aabd
00000050: 0aaa 80bd d1d9 1f3e e461 013e a23e 193e
00000060: 0eb7 183e e4be 813c 3901 c23d 1bd5 db3d
00000070: 8782 7b3d 309a 31bd b141 b5bd 13bf 42bd
00000080: ff68 60bd f4d9 4d3b 796e 7ebd 9866 54bd
00000090: f3e8 083e 5610 223d ecf0 47bd d3db 753d
000000a0: c25a bbbd 02d0 98bd 5d63 be3d 5f2f 083e
000000b0: 100e e83d e491 9dba 8475 8abd ca90 843d
000000c0: e3b5 a23c 5e6c 293c a509 b43c f839 e5bd
000000d0: 8ef1 a23d afd9 e73d ad98 16bd 4668 033e
000000e0: f40b d4bd cc7a 093d c638 243a a990 b1bd
000000f0: ac5d 443d 17db c93d 3e2a aebd 0c7f 4ebd
00000100: 4154 163e 7eb8 083c aa9c 8cbd c3cc 41bd
00000110: bf67 e93d cd65 213d a831 91bc b901 ce3d
00000120: cdfa 3b3d cf2e c23d b221 9d3c 43eb 52bd
00000130: 8ba2 1c3d 0532 e63d 02bf 12bd f504 b13d
00000140: ba39 93bb c452 8fbb ae94 94bd 3989 02bc
00000150: 1a0e a93c c117 b83d f06a af3c 80d9 1a3e
00000160: 5bc5 2f3e d1e3 463c c117 263e 71a6 113e
00000170: e965 96bd dc6b 85bc 405e 333c 4bec 52bc
00000180: 2257 da3d 3ebd cb3d d7e6 4d3d 499b ed3c
00000190: 1d80 853d 6446 013e 2b4f df3c 0604 303e
000001a0: 7f86 053e 66bf 6bbd 46b6 cabd bfaa ae3d
000001b0: b5b7 883d 16d2 99bd 48f2 8a3c 2f7b d73c
000001c0: b340 2f3d 0a79 ffbc 3ec2 9e3c 5ab8 a7bc
000001d0: ced1 10bd 22da 173e 07df 7e3d fbce 90bb
000001e0: d266 8abc 25be c83c d382 b2bd 6512 30bd
000001f0: d3ac 413d dd48 bc3d c1b1 c03d 2209 d3bd
00000200: 7cdf a73c 5345 ec3d ac99 b03d 868f a23c
00000210: f6b2 533d b29c 5d3d 7fc3 fbbd 37f6 d63d
00000220: 3d9a 30bd 4fbc 9bbd 41a8 aebd ba00 963c
00000230: 840d cfbc 0f97 f03c b44e ce3d 8cea aebc
00000240: 3742 cc3d 73b8 01be b388 acbd 89e7 4cbb
00000250: 9935 b7bd 2dd8 b6bd 6f7a 3b3c d78f dbbb
00000260: 4952 c83c 4f84 72bd a0ae bebd cf8f 9fbd
00000270: 3844 953d 0447 ec3d 0e75 96bd 3933 4d3d
00000280: 7d27 6c37 911e 69bd 4361 97bd e316 07be
00000290: 1f35 0e3c 225a 8f3d 7ada c13d 4907 cc3c
000002a0: c922 dbbd bf29 99bd ff5f b83d 054f 1ebd
000002b0: aeb0 7f3d 916a 793d 30ca ab3d 4d75 bcbd
000002c0: de83 e63d 5251 313c 4d69 a93b d999 23bc
000002d0: f1ae b03d 08dc ee3d 7c0b fd3d 888c 3f3d
000002e0: d520 f4bb 82ec adbd ac75 bcbd df06 b7bd
000002f0: 09a7 033e 29be 713d e92c 503d 29fe e8bc
00000300: 0b8e 2f3d 1898 fd3c 1e62 2d3c 99cd cd3d
00000310: 5be6 1c3e 3efa e43c c9a5 633d b4bd c33d
00000320: 7fd4 803b 9a70 233e 3108 2ebd 300c 293e
00000330: e2ba 5f3d 6bf0 f63d 1550 b53d 7f63 8ebd
00000340: e85e bb3d 8c19 323e 4b7a b1bd fa54 6bbd
00000350: 2e07 1c3e f1bc 273e 45d5 0d3e 03f9 9fbd
00000360: d20e ca3d 7ad0 dabc c5f4 aebd 8294 073d
00000370: c8fa f53d d8fb acbc 45c2 08bd fdf5 b03d
00000380: 7b17 94bd b26f ab3c 8164 5c3d c38c 5d3c
00000390: f365 da3d 0ac4 88bd 563f 96bc 97e6 963d
000003a0: 8974 4e3c c396 bcbd d05f 9bbc 3dad 5dbd
000003b0: e4b2 febd 6ed6 00be 499b 073e e417 b6b9
000003c0: de78 c83d c990 c13b 3482 13bd 9f26 42bd
000003d0: 57d6 e5bd 860e b13c 82f6 e13d 9c3c adbd
000003e0: 2eb2 c83b 0cf7 32bc 888d 2fbc 442f c43d
000003f0: 7965 833c a675 663d abf4 b7bc 4f56 f03d

net.4.bias f4 [32]
-0.017012287 0.006941674 -0.012347217 0.14342918 0.104486585 0.09815328 -0.06689395 -0.09962422
0.13857982 0.045978885 0.08049511 0.14451966 -0.0382579 0.035403926 -0.045818053 0.031631667
0.0804038 0.0805861 -0.12057073 -0.10545899 0.13494919 0.07406349 -0.0893408 0.093434915
0.15321626 0.048712138 -0.10820801 0.08163203 -0.07067039 0.06406033 -0.1110931 -0.019357271
00000000: 5a5d 8bbc fb76 e33b fb4b 4abc 19df 123e
00000010: 10fd d53d 9604 c93d b2ff 88bd c807 ccbd
00000020: dee7 0d3e 5b54 3c3d 9fda a43d f6fc 133e
00000030: 51b4 1cbd b503 113d b6ab 3bbd 3590 013d
00000040: bfaa a43d 530a a53d c9ed f6bd e2fa d7bd
00000050: 1f30 0a3e 99ae 973d 4ff8 b6bd ce5a bf3d
00000060: b9e4 1c3e 6186 473d 299c ddbd b22e a73d
00000070: a3bb 90bd 1032 833d c784 e3bd 2493 9ebc

net.6.weight f4 [1, 32, 15]
-0.02054894 0.0048143943 -0.044565327 0.008999541 -0.04383641 -0.022557352 -0.011837399 -0.061603054
-0.07272778 -0.078684576 -0.07503953 -0.023587203 0.0053206757 -0.05144779 -0.03870769 -0.085864544
-0.09037519 -0.08788399 -0.05357898 -0.055002835 -0.08344438 -0.072794236 -0.031702172 -0.015697
-0.08962069 -0.040598188 -0.05762802 -0.022917675 -0.067894325 -0.051095773 -0.012063365 0.052563462
0.0580199 0.06932228 0.0070976187 0.029606912 0.06446745 0.010450151 -0.010399442 -0.0052544735
-0.013764966 0.044207424 0.058100827 0.030904807 0.02650541 -0.06039142 0.014272479 -0.041332033
-0.040134665 -0.018976258 -0.012844387 -0.0030251793 -0.0504516 -0.020282766 -0.056038905 0.0080226455
-0.057541594 -0.05080194 -0.07951267 -0.061781477 -0.018015621 -0.074986584 -0.084807046 -0.04746054
-0.043813556 -0.007992315 -0.015389192 -0.00037384423 0.018997353 -0.017938739 0.021236246 0.030312672
0.017434752 -0.05048063 -0.06285621 -0.02639676 -0.042627018 -0.07876287 -0.034916043 -0.022205964
-0.04933368 -0.08555582 -0.08437763 -0.039136425 -0.029509466 -0.06172116 0.0022147377 0.003991338
0.02826477 -0.0496829 -0.043104675 0.03416278 0.02841399 -0.0127660055 0.03563659 0.02998896
-0.039390683 0.0057088854 -0.008718203 0.01354525 0.019683538 0.010901254 0.006791483 0.010380262
-0.017108168 -0.0014115372 -0.019149024 0.031884126 -0.02580039 -0.027114052 -0.011078527 0.03926436
-0.002514375 -0.035017632 -0.016227165 0.0086904 -0.0079684835 -0.013050724 -0.020873304 0.04190943
-0.06731157 0.005309039 -0.015830487 -0.07036771 -0.041053526 -0.01627153 -0.082355894 -0.0477328
-0.07991439 -0.060186468 0.008441313 -0.074386716 -0.05719298 -0.028983036 -0.05154167 0.03159432
-0.006178326 0.0013826624 0.019835785 -0.04164387 0.009249182 -0.019587526 -0.071118005 0.0055820686
-0.05537892 0.00359801 -0.07485001 -0.04125774 -0.050304063 -0.07399946 -0.0674541 -0.038488396
-0.036201153 -0.036849767 -0.076204404 -0.055354036 0.015640331 -0.009203079 -0.004025532 -0.07032927
-0.057796016 0.0047806944 -0.03758274 -0.06534594 -0.025228878 0.01302397 -0.069464095 -0.065650396
0.003498966 0.011058838 -0.02681561 -0.05166091 0.008309794 -0.02809788 -0.025622768 -0.07081152
-0.041123815 -0.013748289 -0.06945976 -0.01576858 0.037218444 0.0012608188 0.0071026166 -0.020022957
-0.015178224 -0.061408173 -0.042834777 -0.06299976 -0.02537163 -0.024731185 -0.055139307 -0.08854185
-0.06943155 -0.028751869 -0.10304179 -0.016407464 -0.04803003 0.019987773 0.0048911246 0.02962623
0.012815187 0.026016232 -0.048088558 0.0030376336 -0.077619076 -0.00657664 -0.0733583 -0.072358415
-0.045867592 -0.05243296 0.028793793 -0.032137156 0.023100536 -0.018743902 -0.003328266 -0.0126502225
0.01575965 -0.0066160024 -0.05928303 -0.020349525 -0.06325397 -0.017174866 -0.095778786 -0.10296719
-0.08730353 -0.043872036 -0.05544644 -0.069603674 -0.048046354 -0.086089194 -0.062016446 -0.04731545
-0.031520072 -0.020788979 -0.056376852 -0.014068789 -0.076012865 -0.064289115 -0.030664861 -0.014232055
-0.036848817 0.012796225 -0.07310416 0.018274138 0.015690107 -0.045689747 -0.010813111 0.0038067955
-0.042767607 -0.06694242 -0.037184224 -0.062043887 0.0018648981 -0.06572412 0.0007818088 -0.07808448
00000000: 4056 a8bc 11c2 9d3b 228a 36bd d072 133c
00000010: cf8d 33bd 32ca b8bc a6f1 41bc 7c53 7cbd
00000020: 4df2 94bd 6125 a1bd 53ae 99bd f339 c1bc
00000030: 1059 ae3b ebba 52bd f48b 1ebd c0d9 afbd
00000040: a116 b9bd 85fc b3bd a275 5bbd a74a 61bd
00000050: e3e4 aabd 2515 95bd 23da 01bd ff96 80bc
00000060: 0d8b b7bd 494a 26bd 5c0b 6cbd d9bd bbbc
00000070: 2e0c 8bbd cd49 51bd 6ca5 45bc c94c 573d
00000080: 46a6 6d3d d7f8 8d3d 2493 e83b 328a f23c
00000090: 8307 843d 1c37 2b3c 6c62 2abc b82d acbb
000000a0: 7486 61bc d812 353d 22fb 6d3d 142c fd3c
000000b0: e021 d93c fe5c 77bd 1ed7 693c c74b 29bd
000000c0: 3f64 24bd 1974 9bbc 4471 52bc 1642 46bb
000000d0: 56a6 4ebd 0b28 a6bc 0d89 65bd 6a71 033c
000000e0: bcb0 6bbd b215 50bd 8ad7 a2bd 930e 7dbd
000000f0: 7f95 93bc 9192 99bd 51af adbd fc65 42bd
00000100: d875 33bd 33f2 02bc f322 7cbc 8600 c4b9
00000110: 56a0 9b3c 43f4 92bc a3f7 ad3c 4852 f83c
00000120: 53d3 8e3c c7c4 4ebd c2ba 80bd 053e d8bc
00000130: ab99 2ebd 6d4e a1bd 2004 0fbd 48e9 b5bc
00000140: 1d12 4abd e437 afbd 2ece acbd 844d 20bd
00000150: d6bd f1bc 54cf 7cbd 2225 113b c5c9 823b
00000160: 858b e73c 4c80 4bbd 878e 30bd 45ee 0b3d
00000170: 75c4 e83c 8228 51bc acf7 113d 68ab f53c
00000180: 2058 21bd 9a11 bb3b cbd6 0ebc e5ec 5d3c
00000190: 5f3f a13c 2c9b 323c 178b de3b f911 2a3c
000001a0: 6e26 8cbc 5403 b9ba 6ade 9cbc ee98 023d
000001b0: 575b d3bc 4a1e debc b682 35bc aad3 203d
000001c0: 36c8 24bb a66e 0fbd d5ee 84bc 2e62 0e3c
000001d0: 3e8e 02bc b4d2 55bc 7efe aabc 39a9 2b3d
000001e0: a6da 89bd 72f7 ad3b f0ae 81bc f21c 90bd
000001f0: be27 28bd df4b 85bc 35aa a8bd 7883 43bd
00000200: 28aa a3bd 1686 76bd 6f4d 0a3c 1058 98bd
00000210: 3043 6abd d56d edbc 5c1d 53bd 0c69 013d
00000220: 8e73 cabb 743a b53a a87e a23c c392 2abd
00000230: e289 173c 0576 a0bc 51a6 91bd c9e9 b63b
00000240: 02d5 62bd 97cc 6b3b f64a 99bd e0fd 28bd
00000250: a20b 4ebd 078d 97bd 6025 8abd 02a6 1dbd
00000260: a947 14bd c8ef 16bd 0e11 9cbd eaba 62bd
00000270: 2720 803c 83c8 16bc 9ce8 83bb cb08 90bd
00000280: 84bb 6cbd 5fa7 9c3b 5cf0 19bd 18d4 85bd
00000290: cbac cebc 7d62 553c 3143 8ebd b773 86bd
000002a0: e94e 653b 2130 353c 69ac dbbc 649a 53bd
000002b0: cd25 083c 862d e6bc d7e6 d1bc a105 91bd
000002c0: 7271 28bd 8140 61bc eb40 8ebd 1c2d 81bc
000002d0: 5e72 183d 0f42 a53a 11bd e83b 2f07 a4bc
000002e0: 16ae 78bc 2387 7bbd 8573 2fbd 0506 81bd
000002f0: 2ad8 cfbc 0e99 cabc c1d9 61bd 6e55 b5bd
00000300: 2132 8ebd 0a89 ebbc 9307 d3bd f268 86bc
00000310: 23bb 44bd 66bd a33c ba45 a03b b5b2 f23c
00000320: caf6 513c fe1f d53c 82f8 44bd 0913 473b
00000330: c0f6 9ebd db80 d7bb e03c 96bd a630 94bd
00000340: a8df 3bbd f2c3 56bd f6e0 eb3c 40a2 03bd
00000350: 563d bd3c d08c 99bc 0a1f 5abb e142 4fbc
00000360: 621a 813c 0dcb d8bb c3d2 72bd 0cb4 a6bc
00000370: 4c8b 81bd 4eb2 8cbc ab27 c4bd 76e0 d2bd
00000380: 31cc b2bd 2ab3 33bd ce1b 63bd 5f8c 8ebd
00000390: 41cc 44bd 884f b0bd f504 7ebd d8cd 41bd
000003a0: 311b 01bd a64d aabc 6aeb 66bd c780 66bc
000003b0: a2ac 9bbd 03aa 83bd e034 fbbc 912d 69bc
000003c0: c9ee 16bd 42a7 513c a2b7 95bd a5b3 953c
000003d0: 8a88 803c 2c25 3bbd 7a29 31bc 6e7b 793b
000003e0: 162d 2fbd 1c19 89bd 7c4e 18bd bb21 7ebd
000003f0: 996f f43a 5e9a 86bd 4df2 4c3a c1ea 9fbd
